actor_checkpoint.pth (torch_old, 159223 bytes, 6 tensors)

fc1.weight f4 [256, 24]
000000 04 67 3e 3b 42 1b eb b7 5f a9 ed 38 a0 6a 23 bb
       0.0029053101 -2.8026876e-05 0.000113325885 -0.002493538
000010 ed 1d e1 ba df 2b 77 b9 6d c8 ad 39 fb aa 9d 3a
       -0.0017175056 -0.00023572099 0.0003314646 0.0012029106
000020 e6 2f a7 3a 89 a5 fe 3a a5 88 cf ba 45 17 cf ba
       0.0012755364 0.0019427995 -0.001583357 -0.0015799782
000030 d6 a5 ce 3a d9 c6 cf ba 76 e2 b6 3a 39 32 7f 3a
       0.0015765976 -0.0015852108 0.0013952989 0.0009734962
000040 7e d3 ee b9 b1 2c 6d ba 92 d6 0a bb 55 c0 14 3b
       -0.0004555247 -0.0009047492 -0.0021185023 0.0022697647
000050 d6 a6 cc 39 79 09 87 ba 7d cf 85 3a 07 45 d5 38
       0.00039034215 -0.0010302506 0.0010208931 0.00010169489
000060 84 b1 04 3d dd cc 1c 3d 95 e7 f4 3c f3 bc e4 bd
       0.032395855 0.03828131 0.029895583 -0.11168852
000070 7e f7 c9 bd 72 5b 20 3e 00 41 f8 3c 38 db ed bd
       -0.098616585 0.15659884 0.030304432 -0.11614078
000080 01 db d7 3c 27 62 60 bc 98 c6 84 3a 58 53 01 be
       0.026349546 -0.013695276 0.0010129986 -0.1262945
000090 02 3a 00 bd 65 e1 06 3e e5 90 a5 ba c5 d4 00 be
       -0.03130532 0.13171919 -0.0012631683 -0.12581165
0000a0 b7 13 21 bd 2c e1 c6 bd a0 e3 eb bc 6c d9 f4 bb
       -0.039325442 -0.09710917 -0.028795063 -0.007472208
0000b0 61 a3 3b 3d 40 25 01 3e 47 1c da bc 51 8e 18 bc
       0.045810107 0.12611866 -0.026624812 -0.009311275
0000c0 e1 33 ff 3c 27 da 60 3d f1 e8 a0 3c 31 29 e3 bd
       0.031152667 0.054895546 0.019642325 -0.11091841
0000d0 2a 2c d8 bd c1 ab 9b 3c ba 5d 80 3c 0f 77 e8 bd
       -0.105552986 0.019002797 0.015669692 -0.113508336
0000e0 9b 3c ac 3c e3 a1 be 3c bf e5 80 bc 9c 7b 0c be
       0.021024993 0.023270553 -0.015734551 -0.13719028
0000f0 6f 33 9e bd 4e 60 07 bd 21 b5 72 bc 0e 82 0b be
       -0.07724654 -0.033050828 -0.014813692 -0.1362383
000100 00 73 25 3c e8 b9 74 bc a5 39 9e 3c 9b 86 15 be
       0.010098219 -0.014936902 0.019314596 -0.14602129
000110 54 80 97 bb 54 22 64 3d 7c 76 b0 3c 4b d5 11 be
       -0.004623452 0.0556968 0.021540873 -0.14241521
000120 aa 33 1c 3b 8d 83 c8 3d 7d 5b ec bb ed 76 30 3e
       0.0023834505 0.09790716 -0.0072130547 0.17232867
000130 c0 6e 03 be ae 0d e8 bd 26 e4 c6 bb 56 1f 30 3e
       -0.12835217 -0.11330734 -0.006069678 0.17199454
000140 be 2b 96 bc 89 e4 a4 3d 47 53 71 3b bb 9a 1a 3e
       -0.018331405 0.08051402 0.0036823319 0.15098087
000150 e3 c4 98 bd 17 10 46 be 36 23 b5 3b c2 22 1e 3e
       -0.07459428 -0.19342075 0.005527879 0.15442947
000160 1f 7d c7 bc f9 6d 6a 3d a5 bb 5a bc eb 76 be 3b
       -0.024351655 0.057233784 -0.013350402 0.005812516
000170 c1 fc 28 3b 14 34 c8 bd 19 db 0e bc ab f3 ec 3b
       0.0025785419 -0.09775558 -0.008719229 0.007231196
000180 91 af 86 bc 59 8a 30 bc 89 3c d0 3b e3 77 51 bd
       -0.016441138 -0.010775172 0.0063548726 -0.051139724
000190 bb 47 f2 bc a5 9d 88 3d c7 af a7 3a 92 ab 5f bd
       -0.02957522 0.06670693 0.0012793475 -0.05460698
0001a0 0f 5a 28 3d 43 4f f9 bc b0 00 42 3d 32 38 80 bd
       0.04110151 -0.030433303 0.047363937 -0.062607184
0001b0 1b e4 f5 3d 5e 37 69 bb 21 53 46 3d ac 34 73 bd
       0.12006398 -0.003558598 0.04841912 -0.059376404
0001c0 4f 22 21 3d bb 03 24 bd bc 71 fa bc d3 ce 82 3d
       0.03933936 -0.04004262 -0.03057181 0.06387105
0001d0 d4 c6 74 3e 76 a4 9d bd 7d 3f eb bc 75 84 89 3d
       0.23903972 -0.07697384 -0.028716797 0.06714717
0001e0 25 cc 8d bc 90 1f 0e bc cb f4 1c 3a 95 19 a6 bd
       -0.017309258 -0.008674517 0.0005987405 -0.08110348
0001f0 a4 b6 2e 3c e3 d1 68 3d 4d a3 8e 3b d4 4e a4 bd
       0.010663662 0.05684079 0.004352963 -0.08022848
000200 35 d6 33 bb cc 61 82 3c 9f 6d 64 bd 10 c5 ad bd
       -0.002744091 0.015915774 -0.055768605 -0.08484852
000210 fd 05 57 bd c5 3e cf 3c 5f 23 57 bd 6d 37 ab bd
       -0.052495945 0.025298486 -0.052523967 -0.08360181
000220 ce d7 2e bd 0e 2c 81 bc e2 2a 19 3b d1 8f df 3c
       -0.042686276 -0.015768077 0.0023371507 0.027290257
000230 24 38 a9 bd 73 e9 42 3d fd 17 33 3b db 42 d5 3c
       -0.08262661 0.047585916 0.002732753 0.026032856
000240 a3 3b 40 bb 6d 81 2e 3b a3 f0 a1 b8 50 a6 eb ba
       -0.0029332421 0.0026627437 -7.7219e-05 -0.0017978642
000250 1b d5 12 3b 6b 20 fb ba 37 8f a2 3a 66 d6 23 3b
       0.0022404853 -0.0019159442 0.00124023 0.0024999618
000260 25 1f c1 3a 5a 55 1f 3a 71 d7 e6 39 65 e3 28 ba
       0.0014734013 0.0006078087 0.00044029535 -0.0006442576
000270 9e cb ab ba 72 2f 35 3b f6 e3 17 ba 29 82 82 b9
       -0.0013106947 0.0027646688 -0.00057941617 -0.0002489251
000280 81 9e 6d ba 47 2e 8f 39 f0 55 aa 3a 4b a1 5c 39
       -0.00090644514 0.00027309565 0.0012995582 0.00021040921
000290 11 e9 bf 3a 7c 8d bb ba c6 6a 9d 3a 3a 23 dd 3a
       0.0014641603 -0.0014309133 0.001200997 0.001687146
0002a0 09 f8 20 3b 8c d3 89 bd 90 86 62 3b 45 69 24 3c
       0.0024561903 -0.067298025 0.0034565069 0.010034864
0002b0 80 a0 1f be fd 28 78 bd 2a 2a 9d 3b ca 61 00 3c
       -0.1558857 -0.060585964 0.004796286 0.007835815
0002c0 37 69 7b bc 9b e6 c0 bd b2 b9 01 3b f9 c2 e9 3d
       -0.015344909 -0.094189845 0.001979452 0.11414141
0002d0 5f 0f da bd 20 8d 59 bd 54 ea 2b 3b e6 7f ea 3d
       -0.10647463 -0.053113103 0.00262322 0.11450176
0002e0 1b a0 15 bd cc ca 10 be 9a 5f cc 3b 70 cc 54 3d
       -0.03652964 -0.14139861 0.0062369825 0.05195278
0002f0 48 92 ac bc d5 0e 85 3d e9 62 22 3c 91 f7 50 3d
       -0.021065846 0.064969696 0.009911277 0.051017348
000300 1e bd 04 bc ca 8b dd bd 8f df 5d 3d 22 b0 ad 3d
       -0.00810173 -0.10817678 0.05416828 0.0848086
000310 ca 5e 5d 3d ab 98 9f bd 0c 5b 5e 3d d2 31 ab 3d
       0.054045476 -0.07792791 0.054286048 0.08359112
000320 42 ba ee 38 44 4a ae bd 10 36 c0 3d 91 45 6e 3c
       0.000113834176 -0.08510259 0.093853116 0.014542953
000330 35 a5 e1 3b cd 44 e5 bc c3 32 c2 3d 67 dd 80 3c
       0.0068861493 -0.027986908 0.09482338 0.015730573
000340 a3 bb 5c bc ae 41 95 bd e1 0e a0 3b 8b 75 fa 3a
       -0.01347247 -0.07287918 0.004884586 0.0019108517
000350 34 9c a5 bd 87 8e 7d bd 37 81 97 3a 3d 7d a6 ba
       -0.08086434 -0.061903503 0.0011558895 -0.0012702119
000360 6a 82 1d bc 59 06 82 bd 06 9c 2e 3c 9d 86 eb bd
       -0.009613613 -0.06348867 0.010657316 -0.11500285
000370 6b 3a 08 3d c4 d3 a0 3d 40 2e 28 3c f5 cb e9 bd
       0.033258837 0.07852891 0.010264933 -0.11415855
000380 a9 c8 ad bc af 07 60 bd a4 55 f0 bb e1 89 c6 bd
       -0.021213846 -0.054694828 -0.007334428 -0.09694267
000390 37 58 d4 bb 30 20 08 3e a5 c4 1b bc f9 72 cd bd
       -0.0064802426 0.13293529 -0.009507333 -0.10031695
0003a0 5d 10 05 bd 29 9a 36 bd b3 1e bf 3c 4a e5 06 3d
       -0.03248631 -0.044580612 0.023330068 0.03293351
0003b0 c6 2e 9f bc a3 8e 64 3d 67 3e e5 3c 7f c2 01 3d
       -0.019431483 0.05580009 0.027983857 0.031679627
0003c0 51 24 0b 3e 00 57 49 3e 16 ad 3d 3c 2c ad 31 bd
       0.13588072 0.19662094 0.011576911 -0.04337804
0003d0 3b 6f 41 3d c0 48 a5 bd 5a 59 1c 3c ff b5 26 bd
       0.04722522 -0.080705166 0.009542787 -0.04070091
0003e0 ad 44 c5 3d a5 f0 13 3e 6b 07 99 bc 79 ed d9 bd
       0.096322395 0.14447267 -0.018680295 -0.106409974
0003f0 35 6a f3 bc 0d 7f 7b 3d 3e 4b a9 bc cf d0 d7 bd
       -0.02971373 0.061400462 -0.020665761 -0.10537874

fc1.bias f4 [256]
000000 e6 7a a0 bd e1 7e 2a 3e 49 49 15 3e ef 35 43 3e
       -0.07835941 0.16649963 0.14578737 0.19063543
000010 bd 1f db bd 7a e0 50 be b2 ad 4c be 27 95 39 3e
       -0.10699413 -0.20398131 -0.19988135 0.18123303
000020 02 74 21 be 3c 9c 0d be 9b 98 19 3e c5 92 35 bc
       -0.1576691 -0.1382913 0.1499962 -0.011082356
000030 6a e2 01 3e 65 c3 9b bd 05 94 c8 3d 5a 03 62 3e
       0.12684026 -0.07605628 0.097938575 0.22071591
000040 0f 64 d9 3d 27 a3 c7 3d ab 06 01 be 79 ed 18 be
       0.10614788 0.09747916 -0.126002 -0.14934339
000050 9d 37 3e 3e 2d eb 57 be 5a 7d 28 bd b3 7c 27 be
       0.18575902 -0.21085806 -0.04113517 -0.16356163
000060 c7 0f cd 3d 95 d4 68 be 58 60 e8 3d 99 26 44 bc
       0.10012775 -0.22737344 0.11346501 -0.011972093
000070 43 f6 00 be 5c 34 bb bb 53 f5 c4 bd bb 89 ee bd
       -0.12593941 -0.005713029 -0.096171044 -0.11647364
000080 a9 e4 50 bd b1 dd c0 3d f0 87 f0 bd 1e 11 c6 3d
       -0.050999317 0.09417284 -0.11744678 0.096712336
000090 a7 13 25 be 81 bb 61 3e f3 04 ac bd a1 7c 1d 3e
       -0.16120778 0.22044183 -0.083993815 0.15379573
0000a0 a9 9d 3d be b1 80 3e be b4 74 bc 3d bb 52 cd bd
       -0.18517174 -0.1860378 0.09201947 -0.10025545
0000b0 df 64 ac 3d 72 1b b6 bd 6f 74 17 3d 5f 48 1c be
       0.08417677 -0.088919535 0.036976274 -0.15261982
0000c0 05 26 6a 3e 00 f8 3d 3e 3d 26 32 bc 52 d5 ce 3d
       0.22866066 0.18551636 -0.0108733745 0.10099281
0000d0 2e d7 83 bd 5f c0 2a be 62 be 01 3e d6 51 13 be
       -0.06437527 -0.16674946 0.12670282 -0.14386687
0000e0 20 53 84 3e 11 12 38 3c e0 33 2a be 7b 34 51 3e
       0.2584467 0.011234776 -0.16621351 0.20430176
0000f0 99 4e 12 3e df cf 02 3e e1 6a 7b 3d 8e 78 51 be
       0.14287795 0.12774609 0.061381225 -0.20456144
000100 ed b7 1f 3e f9 2c 8d 3d 7b 6b 0a be c2 cb 79 3e
       0.15597506 0.068933435 -0.13517563 0.24394134
000110 0d f6 ce bd e8 f4 25 be 3b 46 e6 bc 64 8d 23 be
       -0.10105524 -0.16206706 -0.02810966 -0.15971905
000120 06 6e 5d be 90 06 69 3d fa a9 ab bd e7 3e 84 3e
       -0.21624002 0.056891024 -0.0838203 0.2582924
000130 3f 31 a2 3d 9d c4 96 3e 77 e4 16 3e 9c 37 b7 3d
       0.07919549 0.2944688 0.1473559 0.089461535
000140 75 a7 e6 3c 73 67 1a bd 12 41 3b be 61 eb 3e be
       0.028156022 -0.037696313 -0.18286541 -0.18644477
000150 70 f8 02 3e 4d 28 e7 bd ba ad 2f 3c 87 e3 30 3e
       0.12790084 -0.11286984 0.010722572 0.17274295
000160 1c 4d 01 be 33 99 f0 3d 96 6a bf 3d d6 98 12 3e
       -0.12627071 0.117479704 0.093465015 0.14316115
000170 ec a7 be bd 18 e7 9a 3e 77 04 2b be 1d 61 10 be
       -0.09309372 0.30254436 -0.16700922 -0.14099546
000180 4b 1b 85 3e 36 37 0d be 63 82 49 3e 8c 4f f0 3d
       0.25997385 -0.13790593 0.19678645 0.11733922
000190 5e 9c 01 3e bb f9 23 3d 6d 10 97 3d 08 bf 26 3e
       0.12657306 0.040033083 0.0737618 0.1628381
0001a0 cf a3 c4 bd 20 d8 8a 3e 98 6a 4c 3e 5d b9 c8 3d
       -0.096015565 0.27118015 0.19962537 0.0980098
0001b0 61 22 04 3e 86 74 c3 3d 4c 60 a6 3d c8 1e 21 be
       0.1290374 0.095437095 0.08123836 -0.15734398
0001c0 14 02 67 3c 36 93 5c be 85 4f 87 bc 4d d6 17 3e
       0.014099617 -0.21540532 -0.01651741 0.14827843
0001d0 d4 38 71 3e f5 a4 21 be 6a c2 2d be be ef 74 3e
       0.23556834 -0.15785582 -0.16968694 0.2391958
0001e0 82 ee 58 3d 76 60 c5 3d 63 f1 53 3e 55 89 4d 3e
       0.052961834 0.09637539 0.2069755 0.2007192
0001f0 df 89 12 3e 49 4e 9e 3d 59 ce 73 3d 4a a4 08 bc
       0.14310406 0.077297755 0.05952296 -0.008339951
000200 51 d8 15 3e b5 9e 44 be a3 05 91 be 96 c8 15 3e
       0.146333 -0.19201167 -0.28324613 0.14627299
000210 f3 9f 4c be 0b 16 45 3e 83 0f 68 3e 38 c5 5e 3e
       -0.19982891 0.1924669 0.22662167 0.2175492
000220 a2 f0 fe 3d c0 3d c9 3d 10 8e 24 3e c4 06 2c 3e
       0.12448241 0.09826231 0.16069818 0.16799456
000230 e5 95 b7 3d 82 47 fa bd 01 f1 41 3e f1 fd ca 3d
       0.08964137 -0.1222067 0.18939592 0.09911717
000240 5c 3e 48 3e 35 b3 db bd 10 29 80 3b 9f 5c 06 be
       0.19555038 -0.107275404 0.003911145 -0.1312127
000250 a7 86 a7 3d 58 75 57 3e bc 28 e1 3d 85 4a 31 3e
       0.0817998 0.21040857 0.109940976 0.17313583
000260 c9 1d 6e 3e 0a 0e 10 be 23 13 98 3e 47 95 c2 3d
       0.2325355 -0.14067855 0.297021 0.09501129
000270 ab 1f b2 3e 7c f9 bc 3d 61 5f ac bd bf 84 51 3e
       0.34789786 0.09227273 -0.084166296 0.20460795
000280 c8 77 db bd bd 65 3b bd 96 94 5f 3d e6 76 ef 3d
       -0.10716206 -0.045751322 0.054585062 0.116926
000290 cc 96 98 3d 1f a7 50 3e 5f 1b c4 bb ee bc 15 3e
       0.07450637 0.20376252 -0.005984708 0.14622852
0002a0 22 8d 19 3e e4 22 dd 3d 01 8f 07 3e 22 5e 50 be
       0.14995244 0.107976705 0.13238145 -0.20348409
0002b0 08 49 2d be 74 7a 45 be 71 f0 42 be b2 e8 2d be
       -0.1692239 -0.19284993 -0.19037034 -0.16983297
0002c0 01 48 98 3d b0 b0 7e 3e cc 6a 4f be fc af 01 3e
       0.07435609 0.24872088 -0.20255584 0.12664789
0002d0 b1 4f 9a bd ac b1 89 3e 7d a4 68 3e d7 04 16 3e
       -0.07534731 0.26893365 0.22718997 0.14650284
0002e0 ec 0e 58 3e cd 2e 63 be b5 86 31 be 06 aa 8c bd
       0.21099442 -0.22185822 -0.17336543 -0.06868367
0002f0 e3 62 c3 3d 8d 1d 03 3e 64 d2 51 3e 3e f4 e2 3d
       0.095403455 0.12804241 0.20490414 0.11081742
000300 49 1c 43 3c 2d 3a 38 be 1a 0c 14 3e 56 45 fe bd
       0.011908599 -0.17990942 0.14457741 -0.124155685
000310 0c ff 33 be d1 f4 49 3e b1 ba 92 3e ac 81 ed 3d
       -0.17577761 0.19722296 0.2865806 0.115969986
000320 c1 2b 7f 3d 72 f7 0d bd 79 f0 96 3d a4 a1 ae bd
       0.062297586 -0.03465981 0.07370085 -0.08526924
000330 bb 1e 38 3e 70 28 5e 3e 73 b6 6b bc 9a 3a 6c 3e
       0.17980473 0.21695113 -0.014386761 0.2306923
000340 39 c4 00 be 98 a0 17 be 2f 08 0e 3e a9 c1 2b bd
       -0.12574853 -0.14807355 0.1387031 -0.041932736
000350 0a a8 49 3e f6 c3 18 3d 1d 9d f8 bc 17 15 26 be
       0.19693008 0.037296258 -0.030348355 -0.16218983
000360 71 8e 49 3e b1 f6 64 3e a4 44 9c 3d 2f 85 72 bd
       0.19683243 0.2235973 0.0763028 -0.059209045
000370 28 88 4d be b0 9a ff 3d 09 b0 81 3e 4f 82 59 3d
       -0.2007147 0.12480676 0.25329617 0.053102788
000380 29 0d b5 3d 02 25 47 be 85 6a fb 3d d8 e6 f2 38
       0.08840401 -0.19447711 0.12276176 0.00011582457
000390 b5 de fe 3d 0a e0 0b be e5 5b 6c 3e 2c 4c 4b 3e
       0.12444822 -0.13659683 0.2308193 0.19853276
0003a0 58 13 b4 bd 6a ab 4d bd da bc 02 3e 9e 05 04 3e
       -0.08792752 -0.0502123 0.12767354 0.12892768
0003b0 f9 74 c0 bd 55 01 0f 3e 9f 87 d2 3d 74 9e 21 3e
       -0.09397311 0.13965352 0.10279774 0.15783101
0003c0 71 45 e7 bd 9e 53 fb bd 3c d5 0b 3e 05 06 8b bd
       -0.11292542 -0.12271808 0.13655561 -0.067882575
0003d0 b4 0b 40 be 3a 2c 88 3e b9 e8 03 3e 61 66 21 be
       -0.18754464 0.26596242 0.12881745 -0.1576171
0003e0 c0 c5 bb 3c da 01 ae bd 28 3e a9 bc 88 95 35 be
       0.022921443 -0.08496447 -0.020659521 -0.17732823
0003f0 83 e1 62 3e f1 d5 5c 3e d2 b4 65 be ce 29 69 3e
       0.22156338 0.21565987 -0.22432259 0.22769853

fc2.weight f4 [128, 256]
000000 48 f8 e7 ba 87 38 94 3d 49 40 f0 bc 16 b6 55 3e
       -0.0017697895 0.07237344 -0.029327529 0.20870242
000010 e4 47 07 3c df 4f 3d bc 28 5f 9d 39 c7 66 18 3c
       0.008256886 -0.011554687 0.0003001627 0.009301848
000020 81 ad c7 bc 2b 91 c2 3c 4b 2e 77 bd 4a c0 f3 3d
       -0.024374725 0.023750862 -0.060346883 0.119019106
000030 11 bf cf 3d b4 18 18 bc d5 4a 9e 3d 9d 86 6c 3d
       0.10143865 -0.009283233 0.07729117 0.057745565
000040 e4 99 3b bc aa 60 fa 3c 52 ab 20 ba bd 77 1b 3e
       -0.011450265 0.030563671 -0.00061290443 0.15182395
000050 3a 08 3f bb 80 a9 29 bd f5 7c 02 3c 14 df 1b 3a
       -0.002914919 -0.041421413 0.007964362 0.0005946022
000060 84 be 3e b9 5c 62 16 bd 40 20 09 bd 8c 8d ad bd
       -0.00018190785 -0.036714897 -0.03347802 -0.084742635
000070 6e 47 25 3e 84 55 06 be cf 31 09 3e 5a 1e 83 bd
       0.1614053 -0.13118559 0.13397907 -0.064022735
000080 e6 db f6 3a 47 e1 80 3d 76 ea 23 3b 0e 36 e7 3c
       0.0018833845 0.06292968 0.0025011576 0.028224017
000090 5e 5e 24 3d be 62 55 3d d8 66 3d bd 5c 2f c4 3c
       0.040129058 0.05209612 -0.046240658 0.023948364
0000a0 cf 55 5b bc 67 39 df 3c 55 4d 78 bd 3d 1b de bd
       -0.013387158 0.027249051 -0.060620625 -0.10845039
0000b0 00 8d c7 bc f1 e6 40 3b e1 20 9b bd 7d 2d 16 bd
       -0.024359226 0.0029434527 -0.075746305 -0.036664475
0000c0 62 4e e4 bc 1f 80 37 3d 3a 59 75 3d 4d d9 68 bd
       -0.027869407 0.04479992 0.059899546 -0.05684786
0000d0 25 16 7b 3d 41 10 ef ba 67 cf 03 bd 16 f0 05 3e
       0.061300416 -0.0018239097 -0.032180216 0.13079867
0000e0 f2 58 04 bc 4a 8b e2 bc 37 e6 3e bb 86 09 5b 3d
       -0.008077847 -0.027654309 -0.0029128918 0.05347588
0000f0 e8 e9 ce 3c a0 44 fd 3c a8 2a cd 3c bb c4 51 bd
       0.02525802 0.030916512 0.025044754 -0.051213007
000100 4b fd c1 3c 14 b0 3c bc 40 64 82 39 85 b9 20 bd
       0.02368035 -0.01151659 0.00024870224 -0.039239425
000110 40 61 d7 3d 22 40 fe bb 1d ff df 3d 1d 06 e3 be
       0.10516596 -0.00775911 0.10937331 -0.44340602
000120 74 c2 01 bb a7 07 ee bd 71 55 68 bd d8 4e 39 be
       -0.001979974 -0.11622553 -0.05672211 -0.18096483
000130 dd 5e 81 bd 6e 08 78 3d df 00 06 bf 15 3f 12 bd
       -0.06316922 0.060554914 -0.5234508 -0.03570469
000140 3f bb 86 bc 14 10 bd 3d 46 53 88 ba 1a b5 08 3b
       -0.016446708 0.09231582 -0.0010400794 0.0020859898
000150 f9 43 9f 3d eb 8e 14 3d 22 d7 ba bd 27 2c 8d 3d
       0.07776637 0.03626911 -0.091230646 0.06893187
000160 01 f3 15 bb ee 45 1f be e0 f8 dc 3d 52 f0 95 3c
       -0.0022880437 -0.1555402 0.10789657 0.01830307
000170 35 87 31 bb 02 30 7f be d4 6c 9c ba 5d 18 ba bc
       -0.0027088646 -0.24920657 -0.0011934289 -0.022716695
000180 a8 82 95 39 ac 3d 26 bb fc bc a0 be f3 56 42 bd
       0.0002851684 -0.002536635 -0.31394184 -0.047446202
000190 15 45 b2 3d 16 78 1e 3d 22 d5 01 be 35 59 11 3c
       0.087045826 0.03868874 -0.1267896 0.008871366
0001a0 7f 47 06 3b 50 68 e6 bd e0 7a 59 3d 66 74 5a bc
       0.0020489392 -0.11250365 0.0530957 -0.013333416
0001b0 e3 47 54 3d 2b df 74 bd 0c 4d 86 bd 59 3a bc ba
       0.05182637 -0.059783142 -0.06557664 -0.0014360651
0001c0 f1 c6 99 bd 9c df 6d bd 92 96 c1 bd a0 4a a0 3d
       -0.07508648 -0.05807458 -0.09452547 0.078267336
0001d0 70 6f 7c 3d b8 0d 03 3b 68 36 1b bb c0 6f 14 bd
       0.061629713 0.001999719 -0.0023683552 -0.036239386
0001e0 27 d1 01 be 5e d2 80 be 6d 2e 09 bf ed 8a 30 bd
       -0.12677442 -0.25160497 -0.53586465 -0.04310124
0001f0 0a 20 b2 bd 4a 4e 71 3d 9f 01 f5 bc 4e ca 2b be
       -0.08697517 0.058912553 -0.029908 -0.16776392
000200 cb 1a 6f 3d 68 a7 33 3b c7 2a 0c bd 72 8c 1c 3d
       0.05837516 0.0027413014 -0.034220483 0.038219877
000210 ec a4 3f ba 55 93 df 3d e7 67 04 3d 6b ef cf bd
       -0.0007310647 0.10916773 0.03232565 -0.10153087
000220 f4 2e 9d 3d e7 27 f8 3c 9f 55 41 3d 82 f6 39 be
       0.07674971 0.030292464 0.047200795 -0.18160442
000230 d8 d0 fd 3b f0 03 75 3c c9 9a 1b 3d bc 9e 01 3d
       0.0077458434 0.014954552 0.03798941 0.03164552
000240 f5 6e 58 bc f7 8c b0 3d 47 7d b7 3d 10 c7 3c 39
       -0.013210048 0.08620637 0.08959442 0.00018003234
000250 f2 02 b3 bc 00 2c ae bd 10 77 28 3d 92 fc 18 3d
       -0.02185199 -0.08504486 0.04112917 0.037350245
000260 81 ef f8 3a 09 7a d9 ba 10 ed 54 3a 53 98 91 bc
       0.0018992276 -0.0016592155 0.0008122483 -0.01777283
000270 e6 de d4 bd c6 77 7c 3c 54 fe 83 bc 97 81 3a 3d
       -0.10394077 0.015409416 -0.016112484 0.045533743
000280 a1 d3 fd 3a 8b 80 9d 3c c5 93 6c 3b e6 cf 4b bc
       0.0019365438 0.019226333 0.003609882 -0.012439704
000290 69 26 c1 bd fc 7e b6 bd ed 3b e3 bd 45 00 68 be
       -0.09431154 -0.08910939 -0.11095414 -0.22656353
0002a0 21 30 8f 3d 74 9c 21 bb dd cf 3e 3d 53 78 de ba
       0.06991602 -0.0024659904 0.046584953 -0.0016973115
0002b0 fd 41 3d bb 48 98 52 ba 04 af 2e 3d 24 7a ef ba
       -0.0028878443 -0.0008033556 0.042647377 -0.0018270654
0002c0 2f 73 ab 3c de 4d 72 bd cf 86 20 3d 36 37 a2 3d
       0.020928947 -0.05915629 0.039191063 0.07920687
0002d0 dd bf 1d bd 7c ad 6a bd 8b 1e c7 be 67 c6 7c 3d
       -0.038513053 -0.057294354 -0.3889049 0.06171265
0002e0 3e 7e bd bc 2f ca 4c bd 28 e2 bc 3a 35 b2 6c bd
       -0.023131486 -0.049997505 0.0014410662 -0.05778714
0002f0 de 13 87 3c dc fe 9c bd 45 29 68 3c 6f 3f a8 3d
       0.016488966 -0.07665798 0.014169996 0.08215224
000300 ec ee c2 bc 8b b2 ad bb b5 79 0a be 7e 84 71 bd
       -0.023795567 -0.005300825 -0.1352299 -0.058964245
000310 ce fb 53 3c 99 54 99 bd e4 c2 52 bc c7 3e 3d 3c
       0.012938453 -0.07486839 -0.012863848 0.011550612
000320 be 21 28 bd 9c a3 8c bd bd 51 99 3d a9 27 bb bd
       -0.041047804 -0.068671435 0.074862935 -0.09138424
000330 84 18 9f bc 91 a3 94 3c 5b 8e ba bc 5b 8c 03 be
       -0.01942087 0.0181444 -0.022772959 -0.1284651
000340 7e 4a 8f bc dc 77 fa 3a 3b 16 c9 bb 2d da 69 bd
       -0.017491575 0.0019109207 -0.0061366833 -0.057092834
000350 e3 de db 3d a1 ba 50 3d 0d af 6f bc a6 73 10 bb
       0.10735872 0.050959233 -0.014629138 -0.0022041588
000360 1a 7c d3 bc d6 03 40 be 7c f8 87 3d d0 60 28 be
       -0.025816012 -0.18751463 0.066391915 -0.16443181
000370 70 3b ba 3c 18 e6 4b 3d 6b e4 7f 3a 55 22 95 bd
       0.02273342 0.04977998 0.0009761515 -0.07281939
000380 51 9b cf bd 5e 34 8d ba 38 7d 0a 3d 27 83 bf bd
       -0.10137046 -0.0010773053 0.033810824 -0.09351187
000390 6b ac 9d 3c ad 3d 8b bd 14 5d 9f ba 98 6f b0 3c
       0.019247254 -0.06798873 -0.0012158477 0.021537587
0003a0 1a 4c 06 bb be 7c 8a ba b3 ba 1e 3b c5 f2 c9 3d
       -0.0020492137 -0.001056574 0.0024220168 0.09860758
0003b0 e0 4f 91 3d 2f de 1e 3d dc 8b 99 3c 57 60 36 3d
       0.07095313 0.03878611 0.018743448 0.04452547
0003c0 f5 63 ce 3c 62 ec d5 bc 50 9f d0 bb 29 e6 8d 3c
       0.025194148 -0.026113693 -0.006366648 0.017321663
0003d0 51 8e c2 bb 54 d4 e6 bc 13 fc 0e 3d ed 59 49 3b
       -0.0059373756 -0.028177418 0.034908365 0.0030723766
0003e0 5c b6 3f 3d 23 cf 88 bd 23 1c 36 3d 39 20 28 bc
       0.04680477 -0.06680133 0.044460427 -0.010261589
0003f0 c2 67 a4 bd 23 fc 6a 3d 59 24 ac 3d e0 10 cd bb
       -0.08027603 0.057369363 0.0840537 -0.006258115

fc2.bias f4 [128]
000000 a9 e3 72 3d 31 8b 7f 3c 2d 5a 2e bd cb 7c a1 bb
       0.059299145 0.015597151 -0.042566467 -0.0049282066
000010 5f fa a6 bd 8a 3f 4b 3c 19 a8 98 3d 8f a1 92 bd
       -0.08153223 0.012405286 0.07453937 -0.07159721
000020 56 ae a5 3d d1 2f 4f 3d 63 14 16 3d 73 cf 9b 3d
       0.080898926 0.05058271 0.036640536 0.07607927
000030 67 45 35 be 2b cb e4 bc 44 65 cd 3c 77 2e a4 3c
       -0.17702256 -0.02792891 0.025072701 0.020041687
000040 a4 fa ed 3c 95 92 a9 bc 2a 21 85 bd ab bf 15 bc
       0.029050179 -0.020699779 -0.06500466 -0.0091399355
000050 a2 a7 63 bd 13 18 cb 3c 3f 50 a7 bd 6a 69 e8 3b
       -0.05557979 0.024791753 -0.081696026 0.0070926445
000060 41 5f 1a 3d 16 51 fd bb 94 2e 8b bd 99 c6 e9 3c
       0.037688497 -0.0077306135 -0.067959934 0.028537082
000070 a6 b7 59 3c 5a 42 09 bd 3a ab 67 3d c2 d8 9b 3c
       0.013288414 -0.033510543 0.05655978 0.019024257
000080 9c 43 6a be ca 63 8c 3d c4 ae a0 bd a6 20 a8 3d
       -0.22877353 0.06854971 -0.07845834 0.08209352
000090 46 e2 27 3d 84 89 83 3c 78 5b 1c 3c fe bd d9 bd
       0.040987276 0.016056783 0.009543292 -0.10631941
0000a0 60 d5 b8 3d b3 e9 59 3d c2 cb a5 3d 77 f1 0d 3d
       0.09025073 0.05320139 0.08095504 0.034654107
0000b0 93 21 02 be 84 88 30 bd 20 17 52 3c 87 9c 31 3d
       -0.1270812 -0.04309894 0.012822896 0.043362167
0000c0 08 51 6d bd 98 e0 8e 3d f1 c7 6c bd 00 80 3c 3d
       -0.057938606 0.069764316 -0.057807866 0.046020508
0000d0 68 5a 08 3d 19 48 79 bd 2a 3a ba bc 51 54 11 3e
       0.033289343 -0.060859773 -0.022732813 0.1419232
0000e0 2c 3b 05 3d a0 c8 02 bc 5d a8 a6 bc 0e e6 eb 3d
       0.032527134 -0.007982403 -0.020343954 0.11518489
0000f0 dd 4c d6 bc ca 61 0c 3d 84 2a 91 3d f1 b7 ff 3b
       -0.026159698 0.034272946 0.07088187 0.00780391
000100 7f 64 b4 3d c7 59 5f 3d a0 9c f3 bd 15 d8 01 3d
       0.088082306 0.054528978 -0.11895108 0.031700213
000110 bc 23 7a 3d 7a 91 28 3d 6e 9c d7 3d 33 af 64 bd
       0.061069235 0.041154362 0.105278835 -0.055831145
000120 fe 7d 83 3c e6 32 be 3c 7a 9f e4 bc d7 9b 6a bd
       0.016051289 0.02321763 -0.027908076 -0.057277527
000130 a4 71 83 bd b4 0b 8a 3d 02 0f e0 bc 5b 73 6b bd
       -0.064181596 0.067405134 -0.027350906 -0.05748306
000140 b0 e8 10 bd c2 4c 4a bd 76 0c 44 bd 9e 63 27 3d
       -0.035378158 -0.04938961 -0.047863446 0.040866487
000150 a9 a8 3a 3d e4 74 ce 3a aa 23 3b bc cb 5e f3 3b
       0.045571003 0.0015751389 -0.011422077 0.0074270717
000160 a2 b8 36 3d ab 01 ac bd 5d bf 0d 3d 74 44 11 3e
       0.044609673 -0.08398756 0.034606326 0.14186269
000170 69 7e c3 3b b3 27 15 bd ae f4 a8 bd 61 c8 d1 3c
       0.005965997 -0.036414813 -0.08249794 0.025608243
000180 6a 6c 61 3d 6a ba 61 3b ee 28 bd 3c a5 21 9e 3c
       0.055035032 0.0034443387 0.023090806 0.019303152
000190 67 dd 15 3d ee 91 f8 3c 1f 5a 84 bc 0e de bb 3d
       0.0365881 0.030343022 -0.016156254 0.09173213
0001a0 7e 1d 3c bd 3a b2 d9 3c dd 8d 1b 3b a9 e0 a9 bc
       -0.045926563 0.026574243 0.002373568 -0.02073701
0001b0 ff 8c 99 bd 92 0a 5c 3d 55 14 49 bd 7a 07 be bd
       -0.07497596 0.053721018 -0.049091656 -0.0927877
0001c0 cd 4b 1d bd b3 23 42 3c e7 c5 34 3c 09 88 58 3d
       -0.038402367 0.011849332 0.011033512 0.05286411
0001d0 e7 98 0e bd f6 3e 4e bd 78 77 1f 3c 5a cf 88 bc
       -0.034813788 -0.050353013 0.009733073 -0.016700435
0001e0 a7 2f f8 3c f4 6a 5c 3d d3 10 01 3d 70 ee 86 bc
       0.03029616 0.053812936 0.031510185 -0.016471118
0001f0 25 c6 3d bd cd 0c 99 3d 42 ec 35 3d 6c 9c be bc
       -0.046331543 0.07473145 0.044414766 -0.023267947

fc3.weight f4 [2, 128]
000000 9a 3a 8a be 40 5e 26 ba 21 81 93 bb b0 d0 2c bd
       -0.26997834 -0.0006346442 -0.0045014773 -0.042191207
000010 ff 36 5b be 22 ee 7c bc 59 62 05 3d 92 45 94 bd
       -0.21407698 -0.015437635 0.032564495 -0.07239832
000020 5b 96 e9 3c 69 79 18 bc 70 69 5f bc e0 8d 51 be
       0.028514078 -0.00930629 -0.013635978 -0.20464277
000030 a0 b7 0e bf 87 c6 c6 3a 10 fb 8f bd f2 9c 25 3d
       -0.5574894 0.0015165367 -0.07030308 0.040432878
000040 6d 3c de bc e7 18 e1 bd e4 37 f0 bd fe 75 b0 3c
       -0.027128423 -0.10991078 -0.1172941 0.021540638
000050 fd 7f cc bd 48 e1 3d 3d d8 ef 8e 3d 3c 38 90 bd
       -0.09985349 0.046357423 0.0697934 -0.07041976
000060 38 8d bb be c2 8f 96 bd 9e 44 33 3c b7 6e 89 3d
       -0.3663118 -0.073516384 0.010941653 0.0671057
000070 1e 1a 6c bc 38 94 21 3e 17 b4 01 bd ec f0 ae be
       -0.014410524 0.15779197 -0.031665888 -0.34168184
000080 f1 95 a9 3c 2c 45 1c 3c 03 f3 ce bd 91 9a 28 3c
       0.02070138 0.009537976 -0.101049446 0.010290758
000090 a5 07 39 bc 47 91 c6 ba 90 8c 5e bc be 78 e7 bd
       -0.0112933265 -0.0015149497 -0.013583317 -0.113023266
0000a0 28 77 e0 3c 77 f9 ac 3b 58 c3 d4 3c 67 1e 5c bc
       0.027400568 0.005278762 0.025972053 -0.013434983
0000b0 46 1e 80 3e 51 e6 34 3a 19 63 82 bd 09 4c 6b bc
       0.25023097 0.0006900775 -0.06366558 -0.01436139
0000c0 f0 45 00 be e1 47 db bb 55 f0 b9 bd 8b 03 5e bd
       -0.12526679 -0.0066919182 -0.09079043 -0.054202598
0000d0 ba 27 13 3d 2c 04 d2 be f0 c7 1b bb 9b 1e 16 3d
       0.035926558 -0.41018808 -0.0023770295 0.03665028
0000e0 30 0a 7b 3d 93 40 a3 be 95 76 0b ba 81 1e c5 3c
       0.061289012 -0.31885204 -0.00053200993 0.024062397
0000f0 34 0c 56 3d 5e 03 13 3d f5 5e 04 bc 96 1e a9 bd
       0.05225773 0.035891883 -0.00807928 -0.08257787
000100 21 85 08 3d 66 9c 4c bc 90 ab bf be cf 4c 02 3e
       0.033330087 -0.01248846 -0.3743558 0.12724613
000110 f2 c3 05 3c d1 8c 58 bc 21 fb af 3c e4 9c c7 3a
       0.008164393 -0.013217167 0.021482052 0.0015229252
000120 0a 5d 3c be 75 6b 5e 3d 18 fe e4 bd 95 0c 95 be
       -0.18394867 0.054301698 -0.11181277 -0.29111162
000130 6d fd c2 bd 29 f4 12 bd 1e 6e b5 3c 25 82 94 3a
       -0.095209934 -0.03587738 0.022147235 0.001133029
000140 c8 7a 85 bd bf 70 37 3b 47 f7 ec be 0c 31 d3 3c
       -0.06517559 0.0027990786 -0.46282408 0.025780223
000150 9c a8 12 bd dc d6 77 bc 71 ae e6 3c 23 f1 83 bd
       -0.03580533 -0.01512691 0.028159352 -0.064424776
000160 4d fb 2e bc 96 6f c8 be 65 f2 51 bc d9 d2 00 be
       -0.010680032 -0.39147633 -0.012814139 -0.12580432
000170 e0 d1 bb 3a de 7c 15 3d 97 94 9d be 7c d9 f5 bc
       0.0014329515 0.036496036 -0.30777428 -0.030010931
000180 ba e2 06 bc 43 46 6b bc 7c 35 3f bc de e4 66 bc
       -0.008232767 -0.014360013 -0.0116704665 -0.014092652
000190 3e dd 22 bc 3c 6b 5a bc 8d 3c 12 3d b7 62 18 3d
       -0.009940444 -0.013331231 0.035702277 0.037203517
0001a0 87 2d ba 3a 74 06 16 3d 45 39 f7 3c d5 b4 80 bd
       0.0014204242 0.036627248 0.030178675 -0.06284491
0001b0 6e d5 2e be c3 e0 0e bc 41 68 c2 bd 90 89 eb bd
       -0.17073604 -0.00872058 -0.09492541 -0.11500847
0001c0 3b 5b d8 3a 44 6a d3 bd e0 1c 66 bc 85 97 03 bd
       0.0016506681 -0.10323003 -0.01404497 -0.032126922
0001d0 96 9b 47 3d a3 9b f4 3a ce eb 42 bd 37 46 70 3c
       0.048732363 0.0018662106 -0.047588162 0.014665178
0001e0 10 14 75 bc d6 17 37 bc 45 89 56 bc bc 5a 7c 3c
       -0.014958397 -0.0111751165 -0.013094251 0.015402492
0001f0 80 a7 f3 3d af e0 9d bd 23 2e 96 ba f3 81 3e bb
       0.118971825 -0.077088706 -0.0011457842 -0.0029069155
000200 45 c6 5a 3e 49 90 c8 bb 74 19 59 3b bc 94 b7 be
       0.21364696 -0.0061207158 0.0033126744 -0.35855663
000210 83 81 93 bd 50 9e a7 ba 21 9b a2 bc cc 7c 23 be
       -0.07202437 -0.001278827 -0.019849362 -0.15965575
000220 a4 3f db bc d3 8b 20 3b d5 02 45 3b 9e ed de bd
       -0.026763745 0.0024497404 0.0030061502 -0.10885166
000230 16 57 eb bd d4 23 37 ba 65 84 1c bd cf 5c 83 3d
       -0.1149122 -0.0006986235 -0.0382122 0.06414186
000240 16 c5 8d bd 52 16 7f 3d fc b1 bc 3d 6e 58 8c 3d
       -0.06922357 0.062277146 0.09213635 0.06852804
000250 69 82 c6 3d 7a 5c 69 3d 43 35 0d bf 0a 2d dd be
       0.096928425 0.05697296 -0.55159396 -0.43198425
000260 56 bf 5f be 80 b0 ae be 63 d9 a1 bb d3 40 94 be
       -0.21850333 -0.34119034 -0.0049392446 -0.28955707
000270 bd 73 1b 3b 7d 27 b6 be cc 81 87 bd 4f 5f 7d 3e
       0.0023720108 -0.35577002 -0.06616554 0.24743389
000280 3e 37 23 bf fe 14 8d bd bf 72 0b 3e d6 50 72 bd
       -0.6375617 -0.068887696 0.13617991 -0.059159122
000290 28 90 d4 3b e7 76 be bb ef f2 35 ba 2c 48 f7 3d
       0.0064869113 -0.005812514 -0.0006940802 0.120743126
0002a0 4d c5 d9 bc 84 e2 3c 3c d9 7f eb bc e7 37 9a 3b
       -0.026583338 0.011528615 -0.028747486 0.004706371
0002b0 0f be f1 be ce 6d df 3d f7 5e 44 bd 02 17 08 3b
       -0.47215316 0.109096155 -0.047942128 0.0020765667
0002c0 0a b4 d7 3d d1 86 b7 bd b7 cc 86 3d bf 3d 66 bd
       0.105323866 -0.08961261 0.06582015 -0.05621123
0002d0 db 1b d6 3a e0 a8 a2 3c 66 de 07 ba 81 5a 40 be
       0.0016335206 0.019855917 -0.0005182981 -0.18784525
0002e0 d7 79 4a 3d d1 3e 19 bc 02 b1 18 bc f7 5b e2 bc
       0.0494326 -0.0093533555 -0.009319546 -0.027631743
0002f0 b4 4d 67 bd 91 d1 7e 3b 12 e6 b1 bd a0 3c 4e 3e
       -0.056470588 0.0038882236 -0.086864606 0.20140314
000300 47 c3 95 bc 6b f6 88 3b bf 1a 1f 3e 95 e1 b6 be
       -0.018281592 0.004179766 0.15537547 -0.3571898
000310 2e aa 9c bd d2 5d d1 b9 79 6f 28 be 78 25 06 38
       -0.07649647 -0.00039933488 -0.16448773 3.1982985e-05
000320 7a 06 b2 3e de 83 23 3d 0b 2b 4c bc 29 c4 0e 3e
       0.34770566 0.03992068 -0.012461434 0.13942017
000330 fc 31 8e 3d 62 bc a9 bd 7f 1d 99 3d 1c 16 e7 39
       0.069431275 -0.08287884 0.07476329 0.00044076226
000340 4f ad 43 bd fa 50 e0 3d b2 98 96 3d 9c ef b1 bc
       -0.0477727 0.10952945 0.07353343 -0.0217207
000350 d3 87 8c bd 32 b5 a2 ba 91 09 96 3d 60 2e 46 bd
       -0.06861844 -0.001241362 0.073260434 -0.04838407
000360 88 58 ed 3b 02 30 1e bf eb 91 20 39 3e e4 2f bf
       0.0072432198 -0.61792004 0.00015313148 -0.68707645
000370 c4 94 d7 bb 60 3f 2b 3e 81 45 8c 3c ed f2 13 bf
       -0.0065790135 0.16723394 0.017122986 -0.5779255
000380 80 12 0d 3c f6 bc 38 bb c5 dc 7f 3b 46 c2 36 3b
       0.008610368 -0.0028188801 0.00390415 0.0027886792
000390 41 20 8d 3b b6 04 87 3b f5 47 7f 3d 18 9e 44 bc
       0.0043068235 0.0041204346 0.062324483 -0.012000583
0003a0 d6 3f b7 3a 1f c1 c9 3b 99 16 dc bd 98 42 a1 3e
       0.0013980817 0.006157055 -0.10746498 0.3149612
0003b0 6d 60 7c bd 5f 36 04 3c 8f a8 59 3d 00 a3 13 3e
       -0.061615396 0.008069604 0.053139266 0.14417648
0003c0 a5 85 df 3d d1 6d 9a bc e3 0d 66 3b 84 fb 7c bd
       0.109141625 -0.018851193 0.0035103492 -0.0617633
0003d0 ef 97 3b bd 87 b7 da 3d 0d 02 31 be 41 6b b1 3d
       -0.045799192 0.10679536 -0.17285939 0.08663035
0003e0 24 7c 4d ba d4 b9 b6 3b d7 ef 13 3b ca d5 9a 3d
       -0.0007838628 0.0055763517 0.0022573376 0.07560308
0003f0 0a 55 1c bd 31 86 81 3d 91 82 de bb 04 db 03 ba
       -0.038167037 0.06324423 -0.006790467 -0.0005029889

fc3.bias f4 [2]
000000 9d 00 33 3b 0a 5c 46 bd
       0.0027313598 -0.04842762
