critic_checkpoint.pth (torch_old, 164249 bytes, 9 tensors)

fc1.weight f4 [256, 24]
000000 4f 2f 90 3c ab a0 83 3a fc 43 da b9 bb 73 d5 ba
       0.017600683 0.001004239 -0.00041630853 -0.0016285101
000010 ae 8c c3 3a 37 53 69 bb 05 c5 5b bb dd 27 24 3b
       0.0014919245 -0.0035602578 -0.003353418 0.0025048174
000020 bb 7c 69 3c 25 69 c4 38 9b 52 6a 3a e8 13 b5 3b
       0.0142509295 9.365593e-05 0.0008938701 0.0055260547
000030 85 9b 07 bb dd e6 35 bb 2c bb 0d ba c8 e5 fc 39
       -0.0020692062 -0.0027756013 -0.0005406614 0.00048236386
000040 f6 a2 34 3c 33 4f a3 3a 4c 57 66 3a 29 d0 25 3b
       0.011025181 0.0012459516 0.0008786812 0.0025301075
000050 a5 30 3f bb a4 c9 e7 3a 53 91 5b ba 33 1d 1d 3b
       -0.0029173282 0.0017683995 -0.0008375842 0.0023973703
000060 0c 60 b4 3b 79 0c 9f b9 7d 9c 2b 3b a3 8a 58 bb
       0.0055046137 -0.00030336136 0.0026185804 -0.0033041618
000070 78 90 2c 3b 8e 0f a8 ba 2a f4 09 bb 90 d0 aa b9
       0.0026331227 -0.0012822018 -0.0021050074 -0.00032580318
000080 c4 6b 0f 3c fb 31 ff 3a cc aa c6 3a 4f 90 83 3a
       0.008753721 0.0019469851 0.0015157103 0.0010037514
000090 5b a3 6d 3b ac 2a 44 3b 53 60 e1 b9 dc 3a f7 ba
       0.0036260698 0.002993266 -0.0004298711 -0.0018862146
0000a0 ed 7b 26 3b bb 64 07 3b a6 59 71 ba 1b 80 0a 3b
       0.0025403455 0.0020659405 -0.0009206779 0.0021133486
0000b0 83 b7 00 bb 1d cd 4b 3a 7c c8 61 3a 38 69 0a bb
       -0.0019640632 0.00077744 0.00086129433 -0.0021119844
0000c0 d2 10 ef 3b 07 f1 04 bd 5a e1 3d 3a 8c 88 09 3a
       0.0072957063 -0.032456424 0.0007243358 0.00052464823
0000d0 e7 12 b6 3b 4f a5 24 bc 6b b6 33 39 a4 fb 2c ba
       0.0055564526 -0.010049178 0.00017138726 -0.00065987767
0000e0 fc cf a3 bc ce 47 49 bd bc 09 d1 ba 09 b1 ba 3c
       -0.019996636 -0.049140744 -0.0015948336 0.022789495
0000f0 9c 7a 0b bb 76 86 5d bd e2 7f a3 bb 19 e1 ad 3c
       -0.0021282798 -0.05408331 -0.00498961 0.021225499
000100 c0 3e fc ba 60 d1 4f bd 41 4a b4 3a 0d 65 6f 3d
       -0.0019244775 -0.050736785 0.001375504 0.05844598
000110 c0 9b d7 bc 48 11 1f be 0a f8 94 3b bb 3f 79 3d
       -0.026319385 -0.15533936 0.00454617 0.060851794
000120 b8 ee 64 3c c9 13 a8 bc 6c da 1a bc 53 3b 9e 3c
       0.013972931 -0.020517247 -0.00945149 0.019315397
000130 b7 7a 72 3b 20 51 12 bd c2 2b 36 bc 06 e0 a6 3c
       0.0036999413 -0.035721898 -0.011118831 0.020370495
000140 1e 83 b9 bb a4 73 a9 bc 99 64 97 3c 82 09 f8 3c
       -0.0056613823 -0.020685025 0.018480586 0.030277971
000150 e4 06 a4 3b ca 70 8e bd 26 cc 88 3c 6c f9 e7 3c
       0.0050057042 -0.069551066 0.016698908 0.028317176
000160 ff e4 a9 3c 5f bf 10 bd d4 75 d2 bb 16 9b 9e bb
       0.020739077 -0.035338756 -0.0064227376 -0.004840265
000170 6c 6a 01 3c 8e 28 19 be a3 9f 21 bc 11 78 c8 bb
       0.007898908 -0.14956877 -0.0098647205 -0.0061178287
000180 35 62 21 bc c4 9d d0 3c 35 af 0a ba c5 1b ca bb
       -0.009850075 0.025465854 -0.000529039 -0.006167861
000190 42 ce 5c 3d 3a 42 08 3d 83 5c 97 3a b0 8c 6b bb
       0.05390764 0.033266284 0.0011547956 -0.003594201
0001a0 7d 3d 50 bb 3e a5 4e 3d 70 f5 ef 3a a4 67 c8 3b
       -0.003177493 0.050450556 0.0018307399 0.0061158706
0001b0 51 70 c4 3c e7 c6 0d 3d a7 4a cb 39 af 65 c3 3b
       0.023979338 0.034613516 0.00038774798 0.0059630494
0001c0 01 85 88 3c 2c e1 8c 3d 5b 19 6f ba 1f 82 86 3c
       0.016664984 0.068788856 -0.0009120905 0.016419468
0001d0 ab ed ee bd 40 47 7b bd cc 6d 85 ba b4 77 af 3c
       -0.11666425 -0.061347246 -0.0010179817 0.021419384
0001e0 82 b5 9c 39 98 bf 9a bc e5 ea 53 bc f4 c0 f7 bc
       0.00029889873 -0.018890187 -0.012934421 -0.030243374
0001f0 7e 54 c1 bc bf 8d 21 bd b5 56 42 bc ea 71 e5 bc
       -0.02359986 -0.03944182 -0.011861493 -0.02800842
000200 8e ff bd 3a 28 34 0f bd ff dd 96 bc 36 43 a9 bd
       0.0014495717 -0.03496185 -0.018416403 -0.082647726
000210 2e b3 e9 bc 1c 6b 4f 39 09 b6 89 bc 3b a9 a1 bd
       -0.028527822 0.0001978096 -0.016810434 -0.07893606
000220 eb 05 08 bd 25 3f 47 bd 1b 6b 5d bc 71 56 08 bb
       -0.03320877 -0.048644204 -0.013514305 -0.0020803476
000230 67 0d b7 bc 3b c9 ea 3b 1e fb 84 bc a5 ce 1e bb
       -0.022345258 0.007165102 -0.016233023 -0.0024232056
000240 34 13 16 3c 6b 6a ab 3d 87 6f 1f bc ae 4e be 3c
       0.009159852 0.08369907 -0.00973118 0.023230877
000250 89 07 f8 bb b6 c0 05 bd 94 c0 70 bc 30 28 a7 3c
       -0.0075692576 -0.032654487 -0.014694352 0.020404905
000260 f2 ff 63 bb aa 2f cd 3d 60 f3 0c bc 57 93 04 3d
       -0.0034790006 0.10018857 -0.008602947 0.032367077
000270 06 6a f7 3b bb 3f c9 bc f4 31 22 bc 5e 46 0f 3d
       0.007550481 -0.024566522 -0.009899605 0.034979217
000280 3d da 41 bb 57 14 d9 3d ea 72 8a 3b 88 81 83 ba
       -0.0029579543 0.10599583 0.0042251246 -0.001003311
000290 4b 96 b3 3c fa 9c 30 bc f4 5b ff 3b 98 85 21 3b
       0.021922251 -0.010779614 0.007792944 0.0024646278
0002a0 6b 5c 1c 3c 93 1e 87 3c 78 90 4e bc 42 f9 2d 39
       0.009543519 0.016494071 -0.012607686 0.00016591421
0002b0 b7 3a 15 bc 4b 10 9d bd dd db 28 bc 91 22 2e bb
       -0.009108237 -0.07669123 -0.010306326 -0.0026570896
0002c0 ed 47 ec 3b 15 d6 8f 3c 2e 2d 6a bb e8 2b d6 bc
       0.0072107227 0.017558137 -0.0035732496 -0.026143983
0002d0 c0 29 ba bc b6 9d da bd 83 14 b3 ba 00 1d d3 bc
       -0.022724986 -0.10674612 -0.0013662729 -0.025770664
0002e0 4a db df bb 27 01 66 3c eb 53 02 bb 74 c5 ff 3b
       -0.006831561 0.014038361 -0.0019886445 0.0078055207
0002f0 e1 dd f1 bc 6d 67 20 be ba 58 23 3b 2b 10 12 3c
       -0.029524745 -0.15664454 0.0024924711 0.008914988
000300 d2 11 cc bc 93 db 58 3c d5 35 c2 3b 11 d9 27 bc
       -0.024910841 0.013235944 0.0059268274 -0.010244624
000310 26 5c 22 3c 83 52 40 bd 23 f6 40 3b 97 3f 2e bc
       0.009909665 -0.04695369 0.0029443584 -0.010635278
000320 a8 3b ab bc 3a 3c a8 3c 5e ca 88 39 59 70 5f bd
       -0.02090247 0.02053653 0.00026090717 -0.054550502
000330 e6 77 e7 3b e1 fb 63 bd 8f cf 62 bb ff a1 55 bd
       0.0070638536 -0.055660132 -0.0034608578 -0.052156445
000340 21 e7 c2 bc 7d 0b 85 3c 04 25 46 bc 21 c0 32 bd
       -0.023791851 0.01624083 -0.012093786 -0.04364026
000350 71 bb 0f 3d e4 58 cb bd df 21 50 bc e6 18 3b bd
       0.035090867 -0.09929064 -0.012703388 -0.045678042
000360 4e a6 8d 3a 98 5b 04 bc c8 31 ae bb b3 bf 81 3d
       0.0010807009 -0.008078478 -0.005315993 0.06335392
000370 77 3b 28 bc cd bf f9 bc 61 0c 1a bb 96 b6 81 3d
       -0.010268084 -0.030486966 -0.0023505914 0.06333654
000380 25 09 8f 3c b9 96 e0 bb f6 40 14 3c a9 6f 87 3d
       0.017460415 -0.006853905 0.009048691 0.06613094
000390 6c 0d 1e bb ee 48 8a bd 55 8b 27 3c db cf 87 3d
       -0.0024116887 -0.067521915 0.01022609 0.06631442
0003a0 5e 9b 96 3c 80 b2 86 3b 59 49 17 3c c1 e2 a6 3d
       0.018384632 0.0041106343 0.009233796 0.081487186
0003b0 ac b8 8f 3c 1a ee eb bc 65 81 40 3c ec 30 af 3d
       0.017544113 -0.02880006 0.0117496 0.08554253
0003c0 08 50 41 3d 72 7b b7 3d 16 24 52 bb 49 f3 5d 3d
       0.047195464 0.08959092 -0.0032064966 0.054187093
0003d0 fe 8d 50 bc db 2d 1e bd 57 b1 2f bb 5a 7e 52 3d
       -0.012729166 -0.03861795 -0.0026808584 0.05139003
0003e0 31 f4 b8 3c 6a b3 69 3d 54 bb 75 3c db 0a e4 3c
       0.022577377 0.05705587 0.014998276 0.027837208
0003f0 16 5d c5 bc 28 e7 a5 3c b2 d8 83 3c a4 b8 df 3c
       -0.024092238 0.020251825 0.01609454 0.027309723

fc1.bias f4 [256]
000000 2a 99 d5 bd 07 2b ed bd a9 a6 c8 3d c9 c4 05 3e
       -0.10429604 -0.115804724 0.09797413 0.13063349
000010 07 d6 5e bd 79 bb 0b bd 88 d6 8e 3d ec 70 c5 bb
       -0.05440333 -0.034114335 0.06974512 -0.006025424
000020 ad 8a ae bd 9c b3 4c 3d 7f 96 3d 3d a1 73 c6 3d
       -0.08522544 0.049975976 0.046286102 0.09690023
000030 4d 76 08 3e 1b 68 cc 3d 88 be 4e be 4c 74 12 3e
       0.13326378 0.09980794 -0.2018987 0.14302176
000040 90 55 43 3e 4f d3 54 3e 2d 16 7a 3d e7 7d 1c 3e
       0.19075608 0.20783733 0.061056305 0.15282403
000050 13 e4 54 be 90 e5 10 be 1f fa 91 bd b5 2c db 3d
       -0.20790128 -0.14150071 -0.07127785 0.107018866
000060 f3 ec 4b 3b 56 69 5a 3d 62 04 16 be 5a e2 04 be
       0.0031116575 0.053323112 -0.1465011 -0.12976971
000070 f5 70 21 be c4 33 42 be de 94 f9 bc 4e 6b 55 be
       -0.15765746 -0.1896506 -0.030466493 -0.20841715
000080 56 43 a1 bd 5c 7b ef bd 26 2f 33 bd f1 79 63 3e
       -0.078741714 -0.11693451 -0.043746136 0.22214486
000090 8e b7 09 be 32 0a 02 3e 29 3a 05 3e 3a 3f 4a be
       -0.13448927 0.12699202 0.13010468 -0.19750682
0000a0 53 bd 58 bd 10 96 f4 bc 46 58 85 bc 79 bd a5 bb
       -0.05291493 -0.029856712 -0.016277444 -0.0050579873
0000b0 68 c3 d3 bd cf 02 31 bd ce 2f 1c bd eb 20 52 be
       -0.10340005 -0.04321557 -0.038131528 -0.2052037
0000c0 1c 0a ec bd 1b 61 c3 ba 1e 88 e6 3d 15 51 e7 3d
       -0.11525366 -0.0014906259 0.11256431 0.11294762
0000d0 19 0b 12 3e bd c3 80 bd f7 e4 d8 3d f5 66 27 be
       0.14262046 -0.06287334 0.105905466 -0.16347869
0000e0 28 d9 25 bd 9d 94 aa bd 54 5d 43 be 3a a6 00 be
       -0.0404903 -0.08329127 -0.1907857 -0.1256341
0000f0 72 ea 3a 3e 24 bc 37 be 04 97 98 3d ef e5 b6 bc
       0.18253496 -0.17942864 0.07450679 -0.022326438
000100 88 90 03 3d 31 24 09 3d 02 b1 48 be 3f 4d 05 bd
       0.032120258 0.03348178 -0.19598773 -0.03254437
000110 d6 0c 21 3e db 74 2d be 90 5b 22 3e 75 a8 21 be
       0.15727553 -0.16939108 0.15855241 -0.15786918
000120 db 68 85 bc bf 8b 94 bc 84 4c 5f 3d 93 78 3e be
       -0.01628535 -0.018133042 0.05451633 -0.18600683
000130 ca 76 9f 3d fa 46 68 3e ff 1d d9 bd c7 d7 02 3e
       0.07786329 0.22683325 -0.106014244 0.12777625
000140 fd b0 6a bd 86 91 1f be 92 d7 11 be 0f 30 8a bd
       -0.057297695 -0.15582857 -0.1424239 -0.06747448
000150 72 d1 d7 bd d1 3e 43 3e e8 36 52 3e 55 a1 c0 3d
       -0.105379954 0.19066931 0.20528758 0.09405772
000160 e3 bd 06 3d 34 af 94 be 5b a6 e1 bd 3a 2a c8 3d
       0.032895934 -0.2903992 -0.11018058 0.09773679
000170 89 39 3c bd fc 88 42 be 72 f1 b3 bd eb 21 dc 3c
       -0.045953307 -0.18997568 -0.087862864 0.026871642
000180 a4 61 39 3c f2 c1 37 bd 18 64 5d bc 3d 46 40 3d
       0.011314783 -0.044862695 -0.013512634 0.046941984
000190 85 61 f2 3d 13 98 17 be 09 4c 83 bc 00 35 1c be
       0.118350066 -0.14804105 -0.016027467 -0.15254593
0001a0 91 9f dd bd 81 fc 61 bd 2f 3b 32 3e 5e b6 4f be
       -0.108214505 -0.055172447 0.17405389 -0.20284411
0001b0 87 95 50 bd 87 4f 84 bd 2f 41 af 3d fc 2d 0e 3e
       -0.05092385 -0.06460481 0.08557355 0.13884729
0001c0 0c fd 84 3d 85 4b e0 3c ba 1a 4d bd 1d 12 44 3d
       0.06493577 0.02737976 -0.050074317 0.047868837
0001d0 bc 62 9e bd d2 2e 95 bd b3 78 6c bd 28 b0 8d bd
       -0.07733676 -0.07284321 -0.057732295 -0.06918365
0001e0 a9 a8 cf bd d6 12 49 bc 2a 14 c4 3c 90 26 85 3d
       -0.10139591 -0.012272557 0.023935396 0.06501496
0001f0 13 8f ce 3d 29 0f b1 3b 69 ba e1 3d da 17 d3 3d
       0.10085883 0.0054034186 0.11021883 0.10307284
000200 42 38 b7 bd b3 b3 1c 3d 7e 9b 1a be ac 5d a0 3d
       -0.08946277 0.038257312 -0.15098378 0.078303665
000210 80 49 f1 3d 89 c7 9e ba 5c 04 fa bd 5c 45 22 3d
       0.11781597 -0.001211391 -0.12207863 0.039616928
000220 38 54 0a 3e 3a 5c 20 3e 44 29 50 be 18 6f 15 bd
       0.1350869 0.15660182 -0.20328242 -0.0364829
000230 fc aa 2a bd a3 1c 2f bc 0e fa 4f be b0 1f 3f bd
       -0.04166697 -0.01068798 -0.20310232 -0.04666108
000240 31 dd f3 3d 79 22 82 be be 08 1a bc c3 41 17 3e
       0.11907423 -0.25416926 -0.009401498 0.1477118
000250 95 71 10 be c9 ab 8d b8 4e 5c 9c 3d b8 45 b2 bc
       -0.14105828 -6.7554014e-05 0.07634793 -0.02176176
000260 e3 c2 c7 bc 74 64 6c bc 35 92 46 be a4 3c 4b be
       -0.024384921 -0.014428247 -0.19391711 -0.19847351
000270 20 a6 12 be b8 8d 23 be 2a 22 a2 bd 12 88 1c be
       -0.14321184 -0.1597203 -0.079166725 -0.15286282
000280 6e 87 4c 3d 63 7e c5 bc f7 71 46 be 05 8c 04 be
       0.049933843 -0.024108117 -0.19379412 -0.12944038
000290 a2 c6 cf 3d 9d fa 09 3e c0 a0 18 3d 37 db 3b bc
       0.10145308 0.13474508 0.03726268 -0.011465839
0002a0 77 69 7b bc 49 be d8 3d 3c 06 14 3d 89 1d 54 bd
       -0.015344969 0.10583169 0.036138758 -0.05178598
0002b0 88 27 3f be b2 bf 9b bd aa e0 6f bd 4d 7a 24 be
       -0.18667424 -0.07604922 -0.058563866 -0.16062279
0002c0 89 e0 18 be 9d 58 94 3d 2e 5d 1f 3e 82 2a 2e 3e
       -0.14929403 0.07243464 0.15562889 0.17008403
0002d0 2b 1f d9 bd 23 70 e4 3d df 13 c3 bd de 50 8c 3d
       -0.10601648 0.11154201 -0.095252745 0.06851362
0002e0 1e c1 41 be 20 47 ce 3d df 0f b5 3d e1 dc ce bd
       -0.18921325 0.1007216 0.08840918 -0.10100723
0002f0 d9 20 bd 3c 66 13 0e bd 6a 20 1d be 19 da e6 3d
       0.023086952 -0.03468647 -0.15344396 0.112720676
000300 fd c0 f3 3d 8f c1 99 bc 04 28 c0 3d 88 63 89 bd
       0.11902044 -0.018769054 0.093826324 -0.06708437
000310 19 bd 93 bd 58 d1 1d 3e 87 4d 12 be a2 32 1e be
       -0.07213802 0.1541189 -0.14287387 -0.15449002
000320 8e 6b f7 bd 1b 29 d0 bd df 4c 12 be d2 6b 69 bc
       -0.12081061 -0.1016409 -0.14287136 -0.014246898
000330 29 74 26 3d f5 fb ce 3d 34 93 9b 3d 65 d2 0b be
       0.040638123 0.10106651 0.07596436 -0.13654478
000340 19 6d a8 bd c8 07 0a be b9 bb e4 bd de 55 cb 3c
       -0.08223934 -0.13479531 -0.11168618 0.024821218
000350 22 25 8e bd e6 0a 21 be 8f 51 26 3d ac 78 f3 bd
       -0.06940676 -0.15726814 0.040605124 -0.11888251
000360 af 55 a8 bd fa d0 12 3e 3d 1c 44 be 6d 6f 3d be
       -0.08219468 0.1433753 -0.19151397 -0.18499537
000370 54 40 3c 3d 50 f1 2f 3e 39 b0 4d 3e 80 e1 3f 3d
       0.045959786 0.17181897 0.20086755 0.046845913
000380 5a 9f 45 bd 50 aa 94 3d c7 12 fd bd 67 9c 2d be
       -0.048247673 0.07259047 -0.12357097 -0.16954194
000390 24 c1 da 3b a0 cc 42 bc 0a 7a fd bc db db 27 3e
       0.006675856 -0.011889607 -0.030941982 0.16392462
0003a0 9f 1c 4f be a2 e5 0c be 4d ad 8d bd 4e 15 6e be
       -0.20225762 -0.13759473 -0.0691782 -0.23250315
0003b0 8f cb 15 3e fb e7 ea 3d 7a 9c 55 be 9a cc dd bd
       0.14628433 0.11470028 -0.20860472 -0.1083004
0003c0 c9 eb 7c bd ec db 37 be 82 9f 56 be b2 7c be bd
       -0.0617483 -0.17954987 -0.20959285 -0.093011275
0003d0 bb f3 a0 bd 4e af 8c bc e2 c1 34 be 4d 58 d7 bd
       -0.07858988 -0.017173436 -0.17652085 -0.10514889
0003e0 54 fa be 3d f9 9a ca 3d 68 fb 10 3e f8 c0 21 be
       0.0932509 0.0989284 0.14158404 -0.15796268
0003f0 33 d5 d4 bd 94 80 50 be f7 1a 83 bd e0 66 ea bd
       -0.10392227 -0.20361549 -0.064016275 -0.11445403

fc2.weight f4 [128, 258]
000000 ac 3c 4e 3b 63 96 b3 bb a5 2e 26 bd 9e 57 06 3c
       0.0031469269 -0.005480574 -0.040571827 0.0081996005
000010 76 39 c6 bd 62 43 f9 3b cc f0 b9 bc 74 14 f7 bc
       -0.096789286 0.0076069096 -0.022697829 -0.03016112
000020 f1 0e 8c 3c 4b 88 47 3c 19 9c 37 bd 2a 08 f1 3b
       0.017096968 0.012178491 -0.0448266 0.0073557096
000030 e8 63 8c bd fc f2 e3 3c 36 67 db 3b 3c ba 7e bc
       -0.06854993 0.027825825 0.0066956533 -0.015547331
000040 7a 67 e7 bb 31 5f 2d 3d 2b 3c a8 3c 18 67 0c 3c
       -0.007061896 0.04232711 0.020536503 0.008569501
000050 d2 37 bb ba 61 d9 2c 3b b0 20 ab ba b1 cb 8a bc
       -0.0014283604 0.0026374685 -0.0013056006 -0.01694283
000060 dc ea d5 3c 62 f4 00 3c 88 0b e8 3b bb 88 e8 bc
       0.026112966 0.007870765 0.0070814528 -0.02838551
000070 25 05 84 3b 05 60 50 bb 3a 76 f8 bb a8 4e 29 bb
       0.0040289336 -0.0031795513 -0.007582453 -0.0025834236
000080 41 9f 8f 3b 01 08 19 bc 58 66 14 3b 72 b4 da 3b
       0.004382998 -0.009340287 0.002264401 0.006674343
000090 cd 54 b6 bb 10 4d e8 3b 6c d6 e9 bb 13 c7 fd 3a
       -0.0055643083 0.0070892647 -0.007136157 0.0019361697
0000a0 22 11 10 3d 5e 0b 2a bb cd 89 c5 bc 40 71 57 bb
       0.03517259 -0.0025946717 -0.02411356 -0.0032873899
0000b0 fa ee 16 bc 4d 19 0d bd e0 e2 56 3b e7 f0 90 3b
       -0.00921225 -0.034447957 0.0032789037 0.004423249
0000c0 a2 6b 4b bd 1f 2f 12 3d 50 79 7b 3a ee f1 ab 3c
       -0.049663194 0.03568947 0.0009592967 0.020989385
0000d0 ad 04 5e 3b 3e 3e 54 3d db a3 20 3d 88 67 c4 bc
       0.0033877299 0.05181717 0.039218765 -0.023975149
0000e0 c5 fc 93 3b d3 bf c9 bb 71 cb ee bb d0 15 00 bc
       0.0045162165 -0.0061569004 -0.0072874357 -0.0078177005
0000f0 ce db 05 ba 5a 4b 16 bc 6c fc 14 3d 55 98 8e 3b
       -0.0005106301 -0.009173239 0.03637354 0.0043516555
000100 ae 9d 76 bc 20 31 a2 3b 35 21 13 3c 9a 3c ae 3b
       -0.015052242 0.004949704 0.008980085 0.005317283
000110 1b 0c c9 bc cd 16 84 3a 21 57 9b 3c 2f b9 08 3c
       -0.024541905 0.0010077596 0.018962445 0.008344932
000120 5d 2a 5f bd 4e fc 99 3c ec e6 9f 3c ca d7 ba 3a
       -0.05448376 0.018797066 0.019519292 0.0014254984
000130 f7 d5 cc bb 80 28 e2 3a b1 fb 2b ba da de 8d bb
       -0.0062510925 0.0017254502 -0.0006560637 -0.0043295445
000140 f4 78 3f bd 1f 7e 4e bd 21 6e ae bb 04 76 4c 3b
       -0.04674621 -0.050413247 -0.005323187 0.0031198272
000150 96 74 c4 bb 42 8d ea 3c 3d 86 b0 3b bf 54 40 3c
       -0.0059953434 0.02863181 0.005387096 0.011738955
000160 76 a0 06 3d 62 8c 87 3c 7f 85 8e bc f1 f9 5b bd
       0.03286787 0.016546432 -0.01739764 -0.05370516
000170 11 25 03 bc 67 1c 7c 3b ca 9b 09 3d 1f 17 c9 39
       -0.008004443 0.0038469078 0.033595838 0.00038354934
000180 00 e3 0e 3d ad 12 23 bc a2 11 60 3c a0 40 dd 3b
       0.034884453 -0.009953183 0.013676079 0.0067520887
000190 9a e0 05 bd 8d 08 a7 bb c7 5a 00 bb 45 d8 57 3b
       -0.0326849 -0.005097455 -0.0019585358 0.0032935303
0001a0 7a 59 e2 bc 02 5e 97 bb d7 e0 a4 3c 41 31 d3 bb
       -0.027630556 -0.004619361 0.020126743 -0.0064450805
0001b0 fc 72 47 3c 8a f9 b3 bd cc a8 ee 3a 0e aa 86 bc
       0.0121734105 -0.0878783 0.0018208264 -0.01643851
0001c0 9e b4 f7 bb 8f ad f0 3b 5a 89 ac bc bb 5c 06 bd
       -0.007559373 0.0073449085 -0.021061588 -0.03280328
0001d0 c0 92 78 3c 36 42 ee 3c 93 26 eb bc 95 1c ea bb
       0.015171707 0.029084306 -0.028704917 -0.0071445205
0001e0 4d ed 68 b9 7f be c9 bc 72 c1 01 bd ff ac 8c 3c
       -0.00022213646 -0.024626968 -0.031678624 0.017172335
0001f0 b7 3f c0 3c 26 28 3f 3c 16 1f 04 bd c4 b4 5d bc
       0.023467882 0.011667287 -0.03225621 -0.013531867
000200 cb 0a 45 bc 3c cf c7 3c 2f 2e 2a 3c eb f5 3b 3b
       -0.012026499 0.02439081 0.010386988 0.0028680514
000210 4c 0f 30 bc 57 11 04 bc 6a 83 81 3c 95 8d 0a bd
       -0.010745835 -0.008060775 0.015809733 -0.03382643
000220 67 85 40 3c ab 7c 3a bd f3 f2 87 bd da 40 61 3b
       0.011750556 -0.04552905 -0.06638136 0.003437093
000230 bf 60 8b 3b 83 35 93 3b 6a ad bc 3b db f7 b7 3c
       0.0042534764 0.004492463 0.0057579773 0.022457054
000240 02 a1 b8 b9 0c a5 93 bc 9e 5c 9d bd 41 bc a6 3c
       -0.00035215175 -0.018023036 -0.07683681 0.020353438
000250 9e 7d 9a 3b 65 94 11 3c 96 7a 5f 3b 5f ac fc bc
       0.0047146818 0.008885478 0.0034100167 -0.030843912
000260 e7 78 0c bd b9 91 a2 ba 47 c9 09 3b ef 85 4a 3a
       -0.03429499 -0.0012403048 0.0021024512 0.0007725646
000270 96 f5 41 bc 33 d3 ff 3b a3 5b c8 3b 14 0c 38 3b
       -0.011838337 0.0078071593 0.0061144396 0.002808337
000280 2d 6f 1d 3c da ff 3a 3d 2a 78 f3 3b 74 80 3a ba
       0.009609026 0.045654155 0.007430096 -0.0007114478
000290 45 9e 9e bc 8a 48 20 3d 5f 9b 5c bc 40 e9 db bb
       -0.019362578 0.03913168 -0.013464778 -0.006711155
0002a0 be 19 b2 3a aa c9 55 bc 7a 2e 6c 3c 2c 00 be 3c
       0.0013587994 -0.013048569 0.014415378 0.023193441
0002b0 91 2b bb bb 33 41 cb 3b a8 31 58 3c bb 59 5b bb
       -0.0057119806 0.0062028407 0.013195433 -0.0033470232
0002c0 1a 5a ea 3b 9e 8b 39 3c 1b 4a 4f 3c c1 d5 8d bc
       0.007151854 0.011324791 0.012651945 -0.01731384
0002d0 67 ff 02 3b 8b 65 75 bc 73 92 ca bb 7a d0 0e 3c
       0.0019988657 -0.014977823 -0.006182009 0.008716697
0002e0 fd e2 0f bd bd 00 e8 3b d8 f4 35 bb 47 28 9b 3a
       -0.035128582 0.007080166 -0.0027764346 0.0011837565
0002f0 d6 55 c0 3b e2 a3 12 bd a6 3b 89 bb a9 bb cb bc
       0.0058696074 -0.035800822 -0.004188019 -0.024869757
000300 ff de fb bc b2 1c ed bc f4 ab 33 bc 1b 53 c4 bc
       -0.030745981 -0.028944347 -0.01096629 -0.023965409
000310 25 c6 7e 3b 05 f3 4d bd 43 e8 d9 ba a7 b5 07 bc
       0.0038875428 -0.05028059 -0.0016625006 -0.008283055
000320 0e 88 96 3a fd a0 3b 3a 46 18 09 3c 11 42 a2 bc
       0.0011484639 0.0007157473 0.008367604 -0.019806894
000330 ee 66 74 3b c5 69 39 3b a1 4d 4d bc 0f 1d 84 bc
       0.0037292796 0.0028291803 -0.012530715 -0.016127137
000340 8d 50 8b bb ab 9d 44 3c 86 17 9d 3b 2f 8d e7 ba
       -0.0042515458 0.012000482 0.004794064 -0.0017665977
000350 b2 e8 61 bc 3a 92 44 bb 75 30 db ba a5 40 91 3b
       -0.013788389 -0.0029994384 -0.0016722815 0.004432755
000360 32 de 8b 3b d8 ad 67 3c a2 55 6d 3b 54 e0 c0 bb
       0.004268431 0.014140569 0.0036214371 -0.005886117
000370 63 cd a5 bb 25 2e 5f bd fb fd f8 3c a4 42 7c bc
       -0.0050598844 -0.054487366 0.030394545 -0.015396748
000380 f5 29 5a 3c 52 99 09 bc 71 8d ca 3b 7d 07 16 bc
       0.013315667 -0.008398371 0.006181412 -0.009157059
000390 0d ec c0 bc 4a 50 ad 3c d9 3d 22 bb 31 64 4c bd
       -0.023550058 0.021156449 -0.0024756102 -0.049900237
0003a0 6a 80 8e bb d1 02 d9 bc 9f 3c 41 bc 2e e1 61 bc
       -0.0043488042 -0.0264906 -0.011794238 -0.013786597
0003b0 5a d8 ac 3c cc 74 a0 bd 7e 89 52 bd 71 e6 58 bc
       0.021099258 -0.07834777 -0.051400654 -0.013238535
0003c0 54 af c2 3b ef e7 46 3b 12 37 a9 bb 8b fd f2 bb
       0.005941311 0.0030350646 -0.0051640356 -0.0074154786
0003d0 3e a9 c8 bc 5c fb 92 3c 9f b6 c8 bb d1 27 9f bc
       -0.024494763 0.017942123 -0.0061252858 -0.019428166
0003e0 40 e1 6c bd 27 45 94 3c 71 59 b6 bc 9d 6e 64 bb
       -0.057832003 0.01809938 -0.022259446 -0.003485597
0003f0 95 d2 c7 b9 3e 1e a9 3b 1b 94 b2 bb b5 9a 3c bc
       -0.00038113134 0.005161076 -0.0054497845 -0.011511494

fc2.bias f4 [128]
000000 6c 4c 30 3d 57 68 a8 3c f5 5e 8b 3d 23 5f 0e bd
       0.04304163 0.020557566 0.06805221 -0.0347587
000010 d9 6c 40 bd 40 29 67 3d eb 43 8c 3d 4a eb 48 bc
       -0.046978805 0.056435823 0.06848892 -0.0122631285
000020 e8 f5 57 3d ea 9b 16 bb 57 6b 72 bd 16 75 38 bd
       0.05272475 -0.0022981116 -0.0591844 -0.045033537
000030 e4 73 c7 bd 06 fd 49 bd f1 ac 6a 3d b7 22 60 bc
       -0.09738901 -0.049313568 0.057293836 -0.013680152
000040 d8 c7 9e bd 06 53 8b 3c 04 da 34 3d 6d 77 03 3d
       -0.07752961 0.017007362 0.04415323 0.032096315
000050 34 23 c5 bc e8 9b ad 3c 3c cb 07 bc a5 61 5a bd
       -0.024064638 0.021192506 -0.008288201 -0.053315777
000060 f6 2a 39 bd b2 51 42 3b ae f8 32 bd 81 c2 c0 3c
       -0.045206986 0.0029650745 -0.04369419 0.023530247
000070 f6 c7 6b 3c 90 82 2f 3c bf 80 d3 bd ce 31 59 bd
       0.014390936 0.010712281 -0.10327291 -0.053026013
000080 db cb 17 3d b9 73 ac bd 87 b2 78 3d 18 ce c8 bd
       0.037059646 -0.0842051 0.060717132 -0.09804934
000090 29 40 35 bd be 3e 2c 3d dc 10 8d bd 43 bb 2d bd
       -0.04425064 0.042052023 -0.06887981 -0.042414915
0000a0 dc eb 96 bc 27 9f e4 bd fc d1 c7 bd e2 42 e3 3c
       -0.018423013 -0.111631684 -0.09756848 0.027741853
0000b0 50 cb 24 bd f9 6e bf 3c 98 ef b9 bc 97 9a 1a 3c
       -0.040232956 0.023368346 -0.022697255 0.009436271
0000c0 55 1b c2 3c 39 d7 0d 3d ed 24 a7 bd 47 b7 a6 3d
       0.023694674 0.03462908 -0.0816134 0.08140426
0000d0 bf 40 0b bd 55 3b 46 3d da d4 84 bd b6 be 2a bd
       -0.033997294 0.048396427 -0.06485911 -0.041685782
0000e0 c8 f1 27 bd ac f5 96 3d 2d a6 f6 3b 93 36 40 bd
       -0.041002065 0.07371077 0.007527134 -0.046927046
0000f0 8d e0 24 3d 01 29 b1 3c 00 4b 84 bd 9a 1f 57 bd
       0.04025321 0.021625997 -0.064596176 -0.052520372
000100 72 44 7d bd c1 fb 9d 3d f3 fc 6d 3d 92 87 76 3d
       -0.061832853 0.07714034 0.05810256 0.060187884
000110 26 33 8a 39 80 2a c2 bd 33 f7 c7 bd 94 55 8b 3b
       0.0002635952 -0.094807625 -0.097639464 0.004252145
000120 24 55 8a 3d 84 3c 19 3a 65 9f 8c 3d 14 4b ee ba
       0.067545205 0.00058455043 0.068663396 -0.0018180334
000130 11 59 87 3a fa 16 8c bd 96 71 9b 3d 5a 0e a8 bd
       0.0010326226 -0.0684032 0.07590024 -0.08205862
000140 c1 d7 21 bc d1 f9 23 3d b3 ba 9f bd 84 7f 4c bd
       -0.0098781 0.040033165 -0.07799282 -0.049926296
000150 26 fb 17 bd d3 a3 55 bc 47 6a 64 bd a5 a0 be bb
       -0.03710475 -0.013039547 -0.055765416 -0.00581749
000160 8b b5 af bc 75 6c 88 bd c9 53 63 bd 7b f3 9b 3c
       -0.021448871 -0.066613115 -0.055499826 0.019036999
000170 2d 94 8e 3c 40 d6 b2 bc 2f 01 9c 3d 7e 60 54 3c
       0.01740464 -0.021830678 0.07617413 0.012962459
000180 8b 1c 45 bd 8e dd 57 bd 18 9d 8e bd 88 60 74 bc
       -0.048122924 -0.052701525 -0.06963557 -0.014915593
000190 c8 b0 98 3d d9 45 00 bd f7 07 1e bd 88 65 97 bd
       0.07455593 -0.031316612 -0.038581815 -0.073924124
0001a0 93 11 0f 3c c5 4e 8e 3d 68 27 1c 3d 33 a2 6f bd
       0.008732217 0.06948618 0.03812352 -0.058504295
0001b0 71 b5 2f 3d 09 fe c1 bd b7 c0 92 3c c9 77 52 3d
       0.042897645 -0.094722815 0.01791416 0.051383767
0001c0 3a 2d ae 3c 14 34 73 bd 6a ad 7d bc e8 f1 a0 3d
       0.0212618 -0.059375837 -0.01548324 0.0785864
0001d0 e2 e4 00 bd 39 ad c0 3c a8 76 7c 3c 3d 96 08 3d
       -0.03146828 0.023520099 0.015409149 0.033346403
0001e0 c8 69 77 bd ac d4 a2 bc 1f 26 2f 3d 2c 13 31 3c
       -0.060403615 -0.0198768 0.042760964 0.010807794
0001f0 30 ed 9f bc 76 7c 98 3c 24 07 69 3d fd ab 37 bb
       -0.01952228 0.018614035 0.056891575 -0.0028026097

fc3.weight f4 [1, 128]
000000 99 9c de 3c 15 0d 4d 3d bb c3 ef 3b 72 fd 00 be
       0.027174281 0.050061304 0.007317034 -0.12596682
000010 a2 f0 48 3d b8 cf f3 3c 8c 77 f6 3c 4e be a5 3d
       0.04905761 0.029762134 0.030086301 0.08092938
000020 94 28 ac 3c c8 0d e8 3c f4 cb 60 39 e1 75 2a be
       0.021015443 0.028326884 0.00021438283 -0.1664653
000030 89 70 08 3e 8a df c0 3d 40 e9 74 3c 79 11 00 3d
       0.13324179 0.09417637 0.014948189 0.031266663
000040 b8 8d 71 bd 35 b6 00 3d aa 42 19 3d 38 41 05 3c
       -0.058973044 0.031423766 0.03741709 0.008133225
000050 03 6b 1a 3d f4 83 42 3d 4e 03 85 3d f7 7b 9c be
       0.03769971 0.04748912 0.06494771 -0.30563328
000060 9b 16 33 3d 01 cf 05 3d bd b3 b9 3c 06 ff 11 3d
       0.04372273 0.032668117 0.022668714 0.0356436
000070 92 c3 e3 3c ce 2f d5 3c 2c 77 bd be 1d dc 3c bd
       0.027803216 0.026023772 -0.37004983 -0.046108354
000080 ee 76 b2 3c db 95 2e 3e 95 7f 8d 3c d0 ec 6b be
       0.021785226 0.17049353 0.01727275 -0.23039556
000090 e5 90 4f be 12 6d 6d 3d 42 c8 27 be 17 2b 1e be
       -0.20270117 0.057965346 -0.16384986 -0.15446125
0000a0 c5 e3 4b 3d 86 bd e2 be 9a 78 c4 bd fb 74 c2 3c
       0.049777765 -0.4428522 -0.095933154 0.023737421
0000b0 d6 ba 0d 3e 19 00 19 3d 85 ae aa 3c 10 6a 34 3d
       0.13840804 0.03735361 0.02083517 0.04404646
0000c0 38 57 07 3d 52 80 1d 3d 46 b3 a2 bc 01 76 ef 3c
       0.033042163 0.038452454 -0.019860875 0.029231073
0000d0 14 74 62 3e 2a 99 23 3c fd 1b 78 3e 65 43 dc 3a
       0.22114593 0.009985248 0.24229427 0.0016804753
0000e0 56 67 23 3d b2 8f 01 3d a0 90 00 3d 31 5c a3 bd
       0.03989347 0.03163118 0.031387925 -0.079765685
0000f0 50 c6 46 3c 21 dd 59 3c 67 f8 c8 3e 26 9c b4 ba
       0.012132242 0.01329735 0.39252016 -0.0013779446
000100 2d 76 bb be a0 a3 a6 3c 98 da c4 3c c1 95 cb 3c
       -0.36613598 0.020341694 0.024030015 0.024851682
000110 b9 34 0c 3d 8d 12 9d 3e 2c de 0c be 02 18 a7 3c
       0.034229968 0.30678216 -0.13756627 0.02039719
000120 c3 b7 01 3d c6 39 15 3d cc 45 18 3d ee 69 89 3c
       0.03166939 0.03643205 0.03717594 0.016774144
000130 4e 3f 19 3d 87 e6 43 be 72 32 ee 3c 59 a1 08 3e
       0.037413888 -0.19130908 0.029076789 0.13342799
000140 8c 15 cf 3d d0 bf b5 3c 28 a8 f0 bd 8e 08 e5 3d
       0.101115316 0.02218619 -0.11750823 0.11183272
000150 cb ed 10 3d ec 81 02 3d 6c ca 6b 3e 5d b9 10 3d
       0.035383027 0.031862184 0.23026437 0.035333026
000160 56 70 9e 3d 20 c4 96 3e de 57 a4 3e 7e 9d 0e 3d
       0.0773627 0.29446507 0.32098287 0.034818165
000170 95 2e 51 3c 1b 68 f2 3d 7b a6 07 3d b5 34 31 3d
       0.012767454 0.11836263 0.033117753 0.043263156
000180 3d 9f d1 bc f6 aa f4 3d 5a e2 d2 bd ab b7 8c 3d
       -0.025588626 0.11946671 -0.102970794 0.068709694
000190 59 84 ee 3c 8e 57 14 3d a6 0d a8 3d d4 5f 0c be
       0.029115843 0.03621631 0.08205728 -0.1370843
0001a0 e1 51 3b 3d 57 e2 d6 3c 6b 05 38 3c 43 a8 ba 3d
       0.045732383 0.026230974 0.0112317605 0.091141246
0001b0 b5 e4 8a 3c 6a ed cf bd 8a ca 1f 3d cd 27 5b 3d
       0.01695476 -0.10152705 0.039011516 0.053504754
0001c0 4f d6 6e 3d 27 da 8d 38 55 86 6c 3d 00 a8 f4 3c
       0.05830985 6.764038e-05 0.057745297 0.029865265
0001d0 83 d1 a3 3d 7d 27 30 3d 49 55 1c 3d 67 df 6b 3c
       0.079989456 0.04300641 0.03816727 0.014396525
0001e0 bc 81 38 be 17 f3 81 3d ee f9 04 3d 30 e2 86 3d
       -0.1801824 0.06345194 0.032464914 0.065861106
0001f0 12 2f 41 3c 54 04 fe 3c e4 c9 42 3d f9 21 13 3d
       0.011791008 0.031007923 0.04755582 0.03592107

bn.weight f4 [256]
000000 d9 c2 31 3f 75 f9 0c 3f de 94 d1 3e 28 cd 23 3f
       0.6943794 0.5506814 0.4093389 0.6398492
000010 89 df 6a 3e 48 b8 3a 3d f1 f5 37 3f 5a 21 b7 3e
       0.22936834 0.0455859 0.7185965 0.35767633
000020 88 77 3c 3f 22 bd 5a 3f ad 27 ce 3e ca 6c ed 3d
       0.7361989 0.85444844 0.40264645 0.115930155
000030 39 03 da 3e 17 af 19 3f 38 a5 2c 3f be c1 dd 3e
       0.42580584 0.6003279 0.67439604 0.43311876
000040 a7 d5 f4 3e 75 4a fe 3e e3 47 78 3f d4 8b aa 3d
       0.47819254 0.4966618 0.9698469 0.08327451
000050 be 74 49 3e 5a 6a ac 3e b7 2d 1d 3f eb 3c 0b 3e
       0.1967344 0.3367489 0.6139788 0.13597457
000060 88 2f 1a 3f 5b fa 68 3f aa e4 2d 3e 3c be b2 3d
       0.60228777 0.9100701 0.1698176 0.087276906
000070 b0 6c 71 3e 00 a2 07 3c ca 5a b9 3d 0f c6 af 3e
       0.23576617 0.00827837 0.0905052 0.34330794
000080 a9 54 4a 3f 2e e8 3b 3f ed 9b 02 3f 5e a1 b7 3e
       0.7903543 0.73401153 0.51019174 0.358653
000090 7a 0a 64 3f 45 f0 fd 3d 5a 05 71 3f 67 c0 69 3e
       0.89078486 0.123993434 0.9414879 0.22827302
0000a0 f1 c6 70 3f 80 54 45 3f cd a3 3f 3f 6e 34 14 3f
       0.9405356 0.7708206 0.74859315 0.578925
0000b0 47 1a 56 3f e0 27 83 3f 04 04 1c 3f 2e 98 06 3f
       0.83633846 1.0246544 0.6094363 0.5257596
0000c0 78 58 cf 3e e8 92 bd 3d c9 25 fd 3e ad 13 3a 3f
       0.40497184 0.09256536 0.4944289 0.7268627
0000d0 fa 65 40 3e 08 b8 1f 3f 78 23 fd 3e b9 3d f4 3e
       0.18788901 0.62390184 0.49441123 0.4770334
0000e0 de 5b 09 3f d2 bc 65 3e 36 06 e4 3e ca c1 e3 3e
       0.53655803 0.2243531 0.4453599 0.44483787
0000f0 96 6d 22 3e c3 a0 89 3e 4d 9f cf 3e e8 66 16 3f
       0.15862116 0.26880464 0.40551224 0.5875077
000100 bd 17 25 3f f7 c4 6b 3f c2 77 c2 3e 0e 06 25 3f
       0.64489347 0.9209742 0.37981993 0.64462364
000110 b7 61 2b 3f 32 3c 96 3e 6b 47 84 3e e0 57 20 3d
       0.66945976 0.293428 0.25835738 0.039146304
000120 6f c9 aa 3e 65 bd 9e 3e 28 b4 42 3e 3c 3f b0 3e
       0.33356807 0.31003872 0.19014037 0.34423244
000130 2b d1 92 3e a8 d8 4e 3f a1 87 01 3f f3 27 2a 3e
       0.28675207 0.8079934 0.5059758 0.16616802
000140 0b e1 25 3e 4e eb 58 3f 3e 0f 89 3e 7b 30 08 3c
       0.16199128 0.84734046 0.2676944 0.00831234
000150 28 a5 74 3f 46 95 b8 3e 9f 21 07 3e 7f 3d 86 3f
       0.9556451 0.36051387 0.13196419 1.0487517
000160 d7 40 33 3f f4 cc 13 3f 79 d0 ee 3d 6e cb 76 3f
       0.7002081 0.5773461 0.11660857 0.9640416
000170 f6 3a 2c 3f 6c 0a 15 3f d8 d5 ea 3d f0 5f 62 3e
       0.6727747 0.5821903 0.11466569 0.2210691
000180 9a e7 ea 3e bf cb 26 3e 56 44 46 3f cd 10 60 3e
       0.45879823 0.1628866 0.7744802 0.21881409
000190 88 98 56 3f 89 99 9b 3d 64 81 1b 3f 40 77 68 3f
       0.83826494 0.07597644 0.6074431 0.9080696
0001a0 76 16 4d 3f e2 b3 56 3f db e0 3f 3f 25 b7 e3 3e
       0.801124 0.8386823 0.7495248 0.44475666
0001b0 50 9d 91 3e ef 47 77 3f 8c 91 c1 3e c8 33 b9 3e
       0.28440332 0.96594137 0.37806356 0.36172318
0001c0 51 57 30 3f d8 97 cc 3e a2 1e 7f 3e c1 81 5f 3e
       0.68883234 0.39959598 0.24914029 0.21826841
0001d0 9b 00 9d 3e 3d ed dc 3d 16 53 59 3e fd 57 55 3f
       0.30664524 0.10787437 0.21223101 0.83337384
0001e0 cb fc 98 3e a9 74 4f 3f d8 8e 3f 3e f3 65 23 3f
       0.29880366 0.81037384 0.18706834 0.6382744
0001f0 ff 4b 99 3d 00 ae b9 3e 6f 93 99 3e 0f 09 28 3f
       0.07485198 0.36265564 0.29995295 0.6563882
000200 eb 0b 53 3f 8d 1e e1 3e 78 d4 6d 3f 5c a3 0d 3d
       0.8244006 0.4396862 0.92902327 0.03457962
000210 51 45 a9 3e 2e 98 64 3f c8 6c 93 3e 01 74 5f 3f
       0.33060697 0.8929471 0.2879393 0.8728638
000220 8d 59 d4 3e 58 c6 88 3e 30 18 91 3e 1f 1e 7d 3e
       0.41474572 0.26713824 0.28338766 0.24718522
000230 fa 6b 11 3f ad 69 05 3f 2d cf 14 3f 58 62 67 3f
       0.56805384 0.52114373 0.58128625 0.90384436
000240 65 ef 4d 3f ce e0 12 3f a1 6b 80 3f 19 27 af 3e
       0.8044341 0.57374275 1.0032846 0.34209517
000250 db e0 77 3f 32 02 52 3f c4 63 69 3f e7 c3 9a 3e
       0.9682748 0.820346 0.91167855 0.30227587
000260 52 a7 15 3f 76 54 d9 3d ee f6 7a 3f 39 37 77 3e
       0.58458436 0.10611813 0.98033035 0.2414216
000270 f5 74 05 3f 5f 9b 4f 3f 65 73 83 3e 56 88 2a 3f
       0.5213159 0.8109645 0.25673977 0.6661428
000280 df d8 89 3f 70 57 88 3e 35 c5 d1 3e 53 ba 12 3d
       1.0769309 0.2662921 0.4097077 0.035822224
000290 1c dd 59 3f ba 22 9e 3e ee 76 da 3e 62 7c 39 3e
       0.8510301 0.3088587 0.4266886 0.18113855
0002a0 e3 5b 3a 3f 3f 99 24 3e c2 ae 07 3f 95 d3 f2 3e
       0.7279646 0.16074084 0.53001034 0.4742705
0002b0 c0 3a 74 3f e6 40 0d 3f f4 4c 71 3f ca 82 72 3f
       0.95402145 0.5517715 0.94258046 0.9473082
0002c0 48 fd 1c 3f b8 1a 61 3f 91 fa 63 3f f7 11 1a 3f
       0.61323977 0.87931395 0.8905421 0.6018366
0002d0 2c 29 c4 3e 32 2c 77 3f 5f 5d a0 3e 49 8d ad 3e
       0.38312662 0.9655181 0.31321236 0.33896855
0002e0 9d b1 2a 3f 4d ce 54 3f 43 79 55 3f 1f 1b bb 3e
       0.66677266 0.8312729 0.83388156 0.3654413
0002f0 6e 82 2e 3e 34 18 3c 3f 85 03 9e 3e 6b f8 2f 3f
       0.17041942 0.7347443 0.3086206 0.6873843
000300 10 ed 2d 3f 4d 2f 2c 3f 7d 88 b0 3e de ae f6 3d
       0.67939854 0.67259675 0.34479132 0.12045072
000310 c4 23 c9 3e 70 e2 9a 3e 19 64 b6 3d 14 4c 8f 3e
       0.392851 0.30250883 0.08905811 0.2798773
000320 1d d8 4f 3f 9d cb e3 3e 00 83 b1 3c ae 48 d9 3d
       0.8118914 0.44491282 0.021668911 0.10609566
000330 92 2c 71 3f c2 6d 86 3d 63 30 25 3f 5c 9f 08 3f
       0.94208634 0.065639034 0.6452696 0.53368163
000340 c1 4f 3a 3d 22 c4 43 3f 17 d7 5a 3f 32 ab 57 3f
       0.045486216 0.7647115 0.8548445 0.842456
000350 b2 69 55 3f 07 ee ca 3e 7b 0a 5d 3e 07 8a 6c 3f
       0.83364403 0.39634725 0.21586029 0.92398113
000360 93 4c 76 3f d9 d5 25 3f 23 b8 53 3f 50 15 7b 3d
       0.96210593 0.6477943 0.82702845 0.061299622
000370 d1 4d a9 3e e4 e6 66 3f cb 0d 4c 3f da 6b 5d 3f
       0.33067182 0.9019606 0.79708546 0.86492693
000380 64 2a 2d 3f 62 67 69 3e fd 44 5a 3f c9 b2 41 3f
       0.6764281 0.22793344 0.8526152 0.7566343
000390 42 a9 3f 3f c1 79 3a 3f 22 41 2a 3f 8e 31 29 3e
       0.7486764 0.7284203 0.66505635 0.1652281
0003a0 73 4a c5 3e d4 2c ea 3e 75 5d 11 3f d3 5c eb 3d
       0.38533363 0.45737326 0.5678323 0.11492314
0003b0 05 05 8c 3e b6 e8 0b 3f a5 c2 79 3e 50 98 d7 3e
       0.2734758 0.54651964 0.24390657 0.42108393
0003c0 83 b3 28 3f 97 79 67 3f 00 f1 3e 3f ca 24 6f 3f
       0.65898913 0.90419906 0.74586487 0.9341551
0003d0 43 e7 36 3f a1 85 6a 3f 60 f7 d9 3e 80 a8 43 3f
       0.7144663 0.9161015 0.42571545 0.76428986
0003e0 02 e5 53 3f 9c e3 87 3d 21 d0 b5 3e 60 94 76 3d
       0.82771313 0.0663521 0.35510352 0.060200095
0003f0 94 ef ae 3e 2f 46 34 3f ad f5 a2 3e 64 76 5d 3f
       0.3416716 0.7041959 0.3182806 0.86508775

bn.bias f4 [256]
000000 5a 03 9f 3d b8 86 a1 bd 29 8e 42 3c b6 58 df bc
       0.07764311 -0.07887024 0.011874714 -0.02726398
000010 9d 8f 19 3b 62 18 d5 3d 0c e0 6d 3d 94 1d 5a 3d
       0.0023431547 0.10405041 0.058074996 0.053250864
000020 b4 5c 90 3c e7 7a af 3c 1e 33 55 bc 29 36 9d 3b
       0.01762233 0.02142091 -0.013012676 0.004797716
000030 4d f5 64 bd db 1a c8 3b 47 97 05 bd 24 6a 37 3d
       -0.055898 0.006106717 -0.032614972 0.044778958
000040 a5 67 1b bd ce 82 56 bc 96 0f fd 3c 6e 38 e7 bb
       -0.03794064 -0.01309271 0.030891221 -0.0070562875
000050 48 d3 9d bd a2 78 c9 3d 27 e6 d4 3c cc d4 b0 3c
       -0.07706314 0.09837462 0.025988651 0.021585844
000060 1d 77 3e 3c 73 30 88 bd d8 ac 8c 3d 1a c2 b1 bb
       0.0116250785 -0.06649866 0.06868905 -0.00542475
000070 78 8b a3 3d 7a ce a4 bd 97 75 a0 bd 9c f7 c6 3c
       0.07985586 -0.08047195 -0.078349285 0.024287991
000080 6e 08 9e 3d 91 2a 84 3c b1 fa 82 3d 7e 95 1c 3c
       0.077164516 0.016133578 0.06395472 0.009557126
000090 fb ef 79 3d 03 bc 74 38 47 4d 00 bd 6b 5d bc 3d
       0.06101988 5.8349233e-05 -0.031323697 0.091975056
0000a0 6c f9 82 3d 01 aa 99 bd e0 0b 25 bc d8 8c a2 bc
       0.0639523 -0.07503129 -0.010073632 -0.01984255
0000b0 76 e9 ff 3c 43 cc 0b 3d ac 74 50 3d 6d ec 90 3d
       0.031239253 0.034130346 0.050892517 0.07076345
0000c0 64 61 76 3b 6e 1d 99 bc e0 e4 ab bc e7 19 ae bc
       0.003759467 -0.018690791 -0.02098316 -0.021252586
0000d0 15 a3 32 bc dc c5 f1 3b 59 98 86 bb 40 ec c0 3c
       -0.01090314 0.007378323 -0.0041075167 0.023550153
0000e0 4c 23 f6 3c 18 a4 5b 3d 9c a7 a3 bd fa 71 0f 3d
       0.030046128 0.05362329 -0.07990953 0.035020806
0000f0 31 92 58 3d cc 3f 6c bc ea 39 d8 bc 02 f4 09 3d
       0.052873794 -0.014419507 -0.026394803 0.03367997
000100 53 22 3f 3d e1 77 47 3d c8 a2 a1 3d e9 db 19 3d
       0.046663594 0.04869831 0.07892376 0.03756324
000110 39 79 03 3b 08 a1 e7 bb 17 8a 53 bc 12 fa 9f 3d
       0.0020061268 -0.007068757 -0.012911341 0.07811369
000120 48 68 51 3d df 51 27 3d 23 f7 44 bd af 65 99 3d
       0.05112484 0.040849563 -0.04808725 0.07490098
000130 ff 88 c2 bc 59 dc 52 bc e3 40 a1 bd f7 c5 e1 3c
       -0.023746965 -0.012869918 -0.07873704 0.027560217
000140 c0 16 4c 3d 12 b2 2c 3d 20 6c 2c 3c 79 1d a1 3d
       0.049826384 0.04216201 0.010523826 0.078669496
000150 f8 0c 8d bd 93 81 6a bc 6d 3d 50 bd 31 7d a5 bd
       -0.06887239 -0.014313119 -0.05083983 -0.08080519
000160 79 23 59 bc e3 df 6a 3d 9a 40 89 3c a3 ce 24 3d
       -0.013253086 0.05734242 0.016754437 0.040236127
000170 ce 58 13 3d 51 b8 a2 3d 1c c5 8b 3d 8f 4e 07 3d
       0.035973363 0.07945312 0.06824705 0.033033904
000180 d9 6e 2c bd fc 98 36 3d 20 d8 66 bc 48 ee be bc
       -0.0420979 0.04457949 -0.014089614 -0.02330698
000190 69 48 79 bd a9 62 a7 bd a2 bd b7 3b 70 ab b9 3c
       -0.06086007 -0.08173115 0.005607323 0.022664756
0001a0 30 42 d3 3c f4 03 ab bd 3a c8 bb 3b 04 4b d0 3c
       0.025788397 -0.083503634 0.005730656 0.025426395
0001b0 24 f0 23 3d 3b 3d ab 3c ce a2 5a bc 4f 5b 81 bd
       0.040023938 0.02090322 -0.01334448 -0.06316244
0001c0 e6 27 f1 3c 70 5a f3 3b a8 d7 01 3d 62 59 cf 3c
       0.02943797 0.0074265525 0.031699806 0.025311176
0001d0 1b 5f c3 bb 02 cc e5 3c 8d da 4d 3c 52 1a 7a 3d
       -0.005962265 0.02805138 0.012564314 0.061060257
0001e0 37 81 99 3d 3e 19 ae 3c 81 f0 d3 bc b2 98 b6 bb
       0.07495349 0.02125227 -0.025871517 -0.005572402
0001f0 a6 e6 c7 bb f8 c1 39 3d 37 4b b3 bc 1c ba 46 bd
       -0.0061004935 0.045351 -0.021886451 -0.04851733
000200 c5 35 a7 3c 66 af 11 3d 37 16 0d 3d eb 40 bb 3d
       0.020411381 0.035567664 0.034445014 0.091432415
000210 d7 93 0d bc 32 a0 9c 3c ac fd 43 bb 01 cc 3f 3d
       -0.008641205 0.019119356 -0.002990584 0.046825413
000220 1e f1 81 b8 70 e0 d3 3b 10 30 00 3d 54 7a 41 3d
       -6.196111e-05 0.006465964 0.031295836 0.0472358
000230 3b fc ce 3c 7e 33 2a 3d 2a 19 ae 3d 08 0c e4 3c
       0.025266757 0.041553013 0.085008934 0.027837768
000240 11 dd 4f 3d 41 0a a0 3d 59 95 64 3c cd 37 e2 bb
       0.050747935 0.07814456 0.013951623 -0.0069036246
000250 8e 5e 9c 3d 42 9d 05 3d a9 93 d8 bc a3 16 fa 3c
       0.076352224 0.032620676 -0.026437597 0.030528372
000260 17 7a b4 3c 85 35 32 3c a6 f6 99 3d 11 26 87 3d
       0.022030873 0.010877018 0.075177476 0.065990575
000270 9f af 4b 3d 6c f2 99 3d 32 a5 9e 3d 5e 5c f7 3c
       0.049728032 0.075169414 0.07746352 0.030195411
000280 c1 43 24 3a 6b 8c 21 3d 0f 63 a3 3d d4 74 89 bd
       0.00062661996 0.039440554 0.07977878 -0.06711736
000290 ee 4a aa bb aa 88 72 bb 08 a2 01 3d a1 b4 6a 3c
       -0.0051969206 -0.0037007728 0.031648666 0.014325292
0002a0 dd 0c 87 bc 80 b9 e9 bc 7f 61 59 bc 2c 72 9c bc
       -0.016485626 -0.028530836 -0.013267874 -0.01909741
0002b0 37 5e a3 bd 00 cd 99 3d 68 3d 14 bc 51 fc ca 3c
       -0.079769544 0.07509804 -0.0090478435 0.024778517
0002c0 53 ce a1 3d 66 bc 56 bc 76 7a 7a 3c 0b fd 08 bd
       0.07900681 -0.013106441 0.015287986 -0.033444446
0002d0 2a 0e 99 3d 9d c6 13 bd 27 8c a1 bd 2a 29 6b bc
       0.07473405 -0.036078084 -0.0788806 -0.014353076
0002e0 89 8f b8 3d cc fe ab 3c 1d 49 99 bc 2b ce 9c bc
       0.09011752 0.02099552 -0.018711621 -0.019141277
0002f0 c8 41 49 3d f0 e1 f3 3c 9b 8f a6 bd 38 9e d1 3b
       0.049135 0.029770821 -0.08132859 0.006397035
000300 6d 4b d9 3b 4f ab 18 3d 15 14 14 bd 48 9d 92 bd
       0.006631306 0.037272748 -0.036151964 -0.07158905
000310 0b f2 f7 3c db 29 60 3d 04 05 a5 bd 11 d2 a3 bd
       0.030266782 0.054727416 -0.08057597 -0.07999051
000320 4b 78 46 3d 52 f6 3d 3d f2 88 a4 3d c0 70 08 3c
       0.048454564 0.046377487 0.08033933 0.008327663
000330 7f cb 16 3d bc 46 eb 3d 23 29 17 3d a8 a4 31 3d
       0.036815163 0.11488101 0.036904465 0.04336992
000340 31 c7 a3 bd ce 12 29 3d b3 9d a0 3d 08 32 61 bc
       -0.07996977 0.0412777 0.07842579 -0.013744839
000350 7c 0f 0d 3c 2a ac a3 bd c3 9e 7d 3c 68 49 92 3d
       0.008609649 -0.07991822 0.015479746 0.071429074
000360 81 ab 6a 3b f2 b1 f0 bc 6a 1a a3 3d f7 4c a5 bd
       0.003580779 -0.029381726 0.079640225 -0.080713205
000370 a8 19 fe 3c 26 8b a7 3d 7e 42 fb bb ed c9 35 3d
       0.031018093 0.08180837 -0.0076678386 0.044382025
000380 79 41 ee 3b c8 43 b2 bc 4b 37 96 3d 29 ec e7 3c
       0.0072709885 -0.021760836 0.07334765 0.028310852
000390 cf 70 98 bc 51 e6 7b bc 75 6a 59 bd 3e 59 1e bd
       -0.018608479 -0.015374736 -0.05308004 -0.038659327
0003a0 15 9a a3 bd 83 9e 35 3d 76 0e ec bc fb d3 9b 3b
       -0.07988373 0.04434062 -0.02881549 0.0047554947
0003b0 d4 0e 18 bd 47 0c 99 3c e0 fe 65 3d b5 06 cb 3d
       -0.037123516 0.018682612 0.05615127 0.09913389
0003c0 e1 37 a2 3d 70 3a 9c 3d fb 9f aa bd 8d 41 a4 bd
       0.07920814 0.076283336 -0.08331295 -0.08020315
0003d0 e6 2a 63 bc 92 93 09 3d f7 43 96 bd 57 eb 04 3c
       -0.013865208 0.033588 -0.07337182 0.00811275
0003e0 77 13 68 3d b2 31 3a 3d de d3 9b 3d 60 b9 a3 bd
       0.056659188 0.04545755 0.0760877 -0.07994342
0003f0 18 fd ac bd 61 b0 9f 3d f2 a1 39 3d 50 46 63 3d
       -0.08446711 0.077973135 0.04532046 0.055486977

bn.running_mean f4 [256]
000000 04 00 00 00 04 00 00 00 6c db 38 3e 90 e8 df 3d
       6e-45 6e-45 0.18052453 0.1093303
000010 10 d7 a8 3c 3d ee 15 3f e6 71 d7 3d 7f 2c 33 3d
       0.020610362 0.5856665 0.10519771 0.043743607
000020 b0 cb 3d 3e a0 e9 9a 3e e2 c7 b2 3d b3 73 4d 3f
       0.18534732 0.30256367 0.08729531 0.8025467
000030 b0 78 cd 3d 2d 5b 93 3d a6 ea c6 3d c9 06 6e 3c
       0.10032785 0.07195125 0.097127244 0.014527985
000040 fb 60 31 3f 41 92 e5 3f 0c 40 e8 3c 3c 50 94 3f
       0.69288605 1.7935258 0.028350852 1.1586986
000050 04 00 00 00 f3 40 28 3e 56 fb c7 3e aa 79 00 3f
       6e-45 0.16431026 0.39058942 0.50185645
000060 65 70 1c 3f 88 39 9d 3e f6 46 06 3e 23 85 bc 3d
       0.61109 0.30707955 0.13113007 0.09205081
000070 04 00 00 00 00 00 00 00 2d f2 a7 3b e5 00 40 3c
       6e-45 0.0 0.005125305 0.011718963
000080 04 00 00 00 39 32 27 3d 93 21 52 3e eb c7 cf 3e
       6e-45 0.04081938 0.2052062 0.40582213
000090 f5 c0 2a 3e e4 72 90 3f 2d cd 0f 3f 5a a5 93 3d
       0.1667517 1.1285062 0.5617245 0.07209273
0000a0 27 51 e6 3c 04 00 00 00 aa 9c 20 3d 6f 6f c9 3d
       0.028114868 6e-45 0.039211906 0.098357074
0000b0 78 a0 98 3e 63 1f 61 3e 50 c9 d2 3e 04 00 00 00
       0.29809928 0.2198463 0.41169214 6e-45
0000c0 e0 5c 6f 3d ce a8 05 3f 55 f3 02 3e 34 16 e0 3e
       0.058438182 0.522107 0.12788136 0.4376694
0000d0 75 6a 15 3f 33 93 8e 3e d1 fc 50 3e c3 da fb 3c
       0.58365566 0.2784668 0.20408942 0.030743962
0000e0 0c ab 3f 3c 96 17 c4 3c 00 00 00 00 04 00 00 00
       0.011698496 0.023937028 0.0 6e-45
0000f0 65 1b b6 3f 9e 40 0a 3e cb 4a af 3f 32 43 84 3f
       1.422711 0.13501212 1.36947 1.0333006
000100 08 fb 23 3d 4b c1 c8 3e 00 00 00 00 51 39 bb 3e
       0.040034324 0.3920997 0.0 0.36567166
000110 86 4c 6d 3f 07 fe 03 3f 60 b7 b7 3f 04 00 00 00
       0.9269489 0.5155949 1.4352837 6e-45
000120 b3 17 b6 3e f2 8e f5 3e f4 49 2f 3d 04 00 00 00
       0.35564956 0.4796062 0.042795137 6e-45
000130 20 b9 72 3e 67 21 b7 3d 04 00 00 00 b8 48 24 3f
       0.23703432 0.08941918 6e-45 0.6417346
000140 6d f7 95 3c 68 13 6a 3d 06 e9 a3 3c 0e 14 a9 3e
       0.018306458 0.057147413 0.020008575 0.33023113
000150 04 00 00 00 10 d3 cd 3f 61 72 2a 3f f3 04 0f 3e
       6e-45 1.6080036 0.6658078 0.13966732
000160 e6 e8 19 3e d1 b5 42 3c df 93 07 3e 0c 1f 6b 3b
       0.1503025 0.011884169 0.13240002 0.003587666
000170 49 eb 9d 3d 00 00 00 00 f8 2f a8 3e 9b a2 aa 3e
       0.07710893 0.0 0.32849097 0.33327183
000180 d9 96 67 3e db 1f 9f 3e 3c f7 41 3e 4c c6 d2 3e
       0.22616138 0.3107899 0.18941969 0.41166914
000190 b7 78 de 3d 04 00 00 00 c5 46 06 3f 5b aa d9 3d
       0.10862868 6e-45 0.52451736 0.10628196
0001a0 06 69 54 3d 04 00 00 00 d7 68 6a 3e 79 f9 a4 3e
       0.05185797 6e-45 0.22891556 0.32221583
0001b0 79 b0 d4 3e c0 ac 04 3d f5 bb 72 3e 44 f4 15 3f
       0.41540888 0.03239131 0.23704512 0.58575845
0001c0 39 07 ce 3f bf 12 88 3e 1b 51 d8 3d ff 38 75 3d
       1.6095954 0.26576802 0.10562345 0.05986881
0001d0 32 8e 14 3e e5 88 93 3e 7a d1 9d 3d 09 68 dc 3e
       0.14507368 0.2881538 0.0770597 0.43048123
0001e0 04 00 00 00 1f d3 35 3f 05 2f fa 3c 8e 46 3f 3f
       6e-45 0.7102527 0.030539999 0.7471703
0001f0 6c 6e 92 3f fd 45 03 3e bd e9 72 3c f3 93 5d 3c
       1.1439948 0.12819667 0.014826235 0.013524043
000200 5e 1e 67 3e 63 ee 0a 3f 5b 21 c9 3c 7c 3e f9 3e
       0.22570178 0.5427 0.024552038 0.48680484
000210 93 1c d9 3d 19 89 c3 3e 04 00 00 00 21 28 12 3e
       0.10601153 0.38190535 6e-45 0.1427312
000220 6d 62 90 3f bc 50 37 3d 52 99 28 3b 36 ce 94 3e
       1.1280037 0.04475473 0.0025726152 0.29063576
000230 2b 73 80 3c 71 36 9d 3b 04 00 00 00 8e 52 ac 3e
       0.015679916 0.0047977497 6e-45 0.33656734
000240 a2 4e a5 3f 23 63 01 3c af 4e 49 3d 3e d7 9d 3d
       1.2914622 0.007897171 0.049147304 0.0770707
000250 04 00 00 00 a0 2d 96 3b f3 1c 4e 3f 5e 8d d4 3c
       6e-45 0.0045830756 0.80512923 0.025946315
000260 ef e6 e7 39 44 08 ed 3e 04 00 00 00 2d 5a 88 3d
       0.00044231812 0.4629537 6e-45 0.06657825
000270 66 8c 4c 3d 04 00 00 00 04 00 00 00 b5 bd 60 3e
       0.049938582 6e-45 6e-45 0.21947367
000280 29 39 ed 3d 6a 50 9e 3d 04 00 00 00 bd 51 4c 3f
       0.11583168 0.077301815 6e-45 0.7981222
000290 de f1 e7 3e 32 97 b6 3f a5 02 a0 3d c8 75 99 3e
       0.45301718 1.4264891 0.078130044 0.29972672
0002a0 07 20 80 3e ed d2 1a 3f 84 26 97 3f ac 7b 55 3f
       0.25024435 0.604781 1.1808629 0.83391833
0002b0 04 00 00 00 04 00 00 00 db 5a f2 3d 3e 18 68 3f
       6e-45 6e-45 0.118337356 0.9066199
0002c0 04 00 00 00 6f 67 0e 3f 42 66 95 3c d0 96 1c 3f
       6e-45 0.5562658 0.018237237 0.6116762
0002d0 04 00 00 00 1b 55 43 3d 04 00 00 00 3d 13 a1 3e
       6e-45 0.047688585 6e-45 0.3145999
0002e0 5a ff 1f 3e 56 7d 38 3d ba 77 98 3d 5b f4 d2 3d
       0.15624753 0.045041405 0.07444711 0.10300513
0002f0 61 99 1a 3f 18 c2 46 3e 04 00 00 00 7f 30 52 3e
       0.6039029 0.19409978 6e-45 0.20526312
000300 3e 3a 86 3f ef 01 8c 3c 43 47 52 3c 0d 62 b3 3c
       1.0486524 0.017090766 0.012834373 0.02189734
000310 88 50 78 3e d9 02 12 3e 04 00 00 00 00 00 00 00
       0.2424947 0.14258899 6e-45 0.0
000320 36 a4 19 3e aa 0e 7d 3b 00 00 00 00 87 12 ed 3e
       0.15004048 0.0038613477 0.0 0.46303198
000330 77 0a d1 3f b5 a2 86 3e eb cf 80 3b ca 69 1c 3e
       1.6331319 0.2629601 0.0039310358 0.1527473
000340 04 00 00 00 2e 3f b0 3c 04 00 00 00 12 b7 6d 3d
       6e-45 0.021514501 6e-45 0.058035918
000350 34 9a 24 3c 04 00 00 00 16 fc 27 3e 04 00 00 00
       0.0100465305 6e-45 0.16404757 6e-45
000360 d1 4c 00 3e 7d 0d bb 3f 00 00 00 00 00 00 00 00
       0.12529303 1.4613491 0.0 0.0
000370 04 00 00 00 1c fe 30 3e 1c e1 b5 3e 1a f9 ba 3d
       6e-45 0.17284435 0.35523307 0.091295436
000380 c2 07 d8 3c 20 9b c7 3c 04 00 00 00 ba 0a e8 3e
       0.026370887 0.024365962 6e-45 0.45320684
000390 e0 70 d8 3d 19 d1 db 3d 16 a1 ff 3e 48 99 82 3e
       0.10568404 0.107332416 0.49927586 0.2550757
0003a0 04 00 00 00 9e ff d8 3d 3c 51 98 3c 91 52 ce 3e
       6e-45 0.1059563 0.018593423 0.40297368
0003b0 34 6e e0 3f dc a9 c6 3d 5f 5a 87 3c 25 eb 25 3d
       1.7533631 0.09700367 0.016522584 0.040507454
0003c0 04 00 00 00 04 00 00 00 04 00 00 00 04 00 00 00
       6e-45 6e-45 6e-45 6e-45
0003d0 48 74 ed 3e 0e 16 5a 3c 04 00 00 00 04 00 00 00
       0.46377778 0.013310922 6e-45 6e-45
0003e0 0c cf c6 3d f0 02 27 3f f6 7a 8e 3e 00 00 00 00
       0.0970746 0.6523886 0.27828187 0.0
0003f0 04 00 00 00 04 00 00 00 59 47 9d 3e 04 00 00 00
       6e-45 6e-45 0.30718496 6e-45
